{"format": "graph-model", "generatedBy": "2.6.0", "convertedBy": "TensorFlow.js Converter v3.9.0", "signature": {"inputs": {"main_input": {"name": "main_input:0", "dtype": "DT_FLOAT", "tensorShape": {"dim": [{"size": "-1"}, {"size": "6"}, {"size": "6"}, {"size": "51"}]}}}, "outputs": {"value_head": {"name": "Identity_1:0", "dtype": "DT_FLOAT", "tensorShape": {"dim": [{"size": "-1"}, {"size": "1"}]}}, "policy_head": {"name": "Identity:0", "dtype": "DT_FLOAT", "tensorShape": {"dim": [{"size": "-1"}, {"size": "6"}, {"size": "6"}, {"size": "54"}]}}}}, "modelTopology": {"node": [{"name": "StatefulPartitionedCall/model/activation_17/PartitionedCall/PartitionedCall/Gelu/mul/x", "op": "Const", "attr": {"dtype": {"type": "DT_FLOAT"}, "value": {"tensor": {"dtype": "DT_FLOAT", "tensorShape": {}}}}}, {"name": "StatefulPartitionedCall/model/activation_17/PartitionedCall/PartitionedCall/Gelu/add_1/x", "op": "Const", "attr": {"dtype": {"type": "DT_FLOAT"}, "value": {"tensor": {"dtype": "DT_FLOAT", "tensorShape": {}}}}}, {"name": "StatefulPartitionedCall/model/activation_17/PartitionedCall/PartitionedCall/Gelu/mul_2/x", "op": "Const", "attr": {"dtype": {"type": "DT_FLOAT"}, "value": {"tensor": {"dtype": "DT_FLOAT", "tensorShape": {}}}}}, {"name": "StatefulPartitionedCall/model/activation_17/PartitionedCall/PartitionedCall/Gelu/Cast/x", "op": "Const", "attr": {"dtype": {"type": "DT_FLOAT"}, "value": {"tensor": {"dtype": "DT_FLOAT", "tensorShape": {}}}}}, {"name": "StatefulPartitionedCall/model/activation_17/PartitionedCall/PartitionedCall/Gelu/Pow/y", "op": "Const", "attr": {"dtype": {"type": "DT_FLOAT"}, "value": {"tensor": {"dtype": "DT_FLOAT", "tensorShape": {}}}}}, {"name": "StatefulPartitionedCall/model/activation_16/PartitionedCall/PartitionedCall/Gelu/mul/x", "op": "Const", "attr": {"dtype": {"type": "DT_FLOAT"}, "value": {"tensor": {"dtype": "DT_FLOAT", "tensorShape": {}}}}}, {"name": "StatefulPartitionedCall/model/activation_16/PartitionedCall/PartitionedCall/Gelu/add_1/x", "op": "Const", "attr": {"dtype": {"type": "DT_FLOAT"}, "value": {"tensor": {"dtype": "DT_FLOAT", "tensorShape": {}}}}}, {"name": "StatefulPartitionedCall/model/activation_16/PartitionedCall/PartitionedCall/Gelu/mul_2/x", "op": "Const", "attr": {"dtype": {"type": "DT_FLOAT"}, "value": {"tensor": {"dtype": "DT_FLOAT", "tensorShape": {}}}}}, {"name": "StatefulPartitionedCall/model/activation_16/PartitionedCall/PartitionedCall/Gelu/Cast/x", "op": "Const", "attr": {"dtype": {"type": "DT_FLOAT"}, "value": {"tensor": {"dtype": "DT_FLOAT", "tensorShape": {}}}}}, {"name": "StatefulPartitionedCall/model/activation_15/PartitionedCall/PartitionedCall/Gelu/mul/x", "op": "Const", "attr": {"dtype": {"type": "DT_FLOAT"}, "value": {"tensor": {"dtype": "DT_FLOAT", "tensorShape": {}}}}}, {"name": "StatefulPartitionedCall/model/activation_15/PartitionedCall/PartitionedCall/Gelu/add_1/x", "op": "Const", "attr": {"dtype": {"type": "DT_FLOAT"}, "value": {"tensor": {"dtype": "DT_FLOAT", "tensorShape": {}}}}}, {"name": "StatefulPartitionedCall/model/activation_15/PartitionedCall/PartitionedCall/Gelu/mul_2/x", "op": "Const", "attr": {"dtype": {"type": "DT_FLOAT"}, "value": {"tensor": {"dtype": "DT_FLOAT", "tensorShape": {}}}}}, {"name": "StatefulPartitionedCall/model/activation_15/PartitionedCall/PartitionedCall/Gelu/Cast/x", "op": "Const", "attr": {"dtype": {"type": "DT_FLOAT"}, "value": {"tensor": {"dtype": "DT_FLOAT", "tensorShape": {}}}}}, {"name": "StatefulPartitionedCall/model/activation_14/PartitionedCall/PartitionedCall/Gelu/mul/x", "op": "Const", "attr": {"dtype": {"type": "DT_FLOAT"}, "value": {"tensor": {"dtype": "DT_FLOAT", "tensorShape": {}}}}}, {"name": "StatefulPartitionedCall/model/activation_14/PartitionedCall/PartitionedCall/Gelu/add_1/x", "op": "Const", "attr": {"dtype": {"type": "DT_FLOAT"}, "value": {"tensor": {"dtype": "DT_FLOAT", "tensorShape": {}}}}}, {"name": "StatefulPartitionedCall/model/activation_14/PartitionedCall/PartitionedCall/Gelu/mul_2/x", "op": "Const", "attr": {"dtype": {"type": "DT_FLOAT"}, "value": {"tensor": {"dtype": "DT_FLOAT", "tensorShape": {}}}}}, {"name": "StatefulPartitionedCall/model/activation_14/PartitionedCall/PartitionedCall/Gelu/Cast/x", "op": "Const", "attr": {"dtype": {"type": "DT_FLOAT"}, "value": {"tensor": {"dtype": "DT_FLOAT", "tensorShape": {}}}}}, {"name": "StatefulPartitionedCall/model/activation_13/PartitionedCall/PartitionedCall/Gelu/mul/x", "op": "Const", "attr": {"dtype": {"type": "DT_FLOAT"}, "value": {"tensor": {"dtype": "DT_FLOAT", "tensorShape": {}}}}}, {"name": "StatefulPartitionedCall/model/activation_13/PartitionedCall/PartitionedCall/Gelu/add_1/x", "op": "Const", "attr": {"dtype": {"type": "DT_FLOAT"}, "value": {"tensor": {"dtype": "DT_FLOAT", "tensorShape": {}}}}}, {"name": "StatefulPartitionedCall/model/activation_13/PartitionedCall/PartitionedCall/Gelu/mul_2/x", "op": "Const", "attr": {"dtype": {"type": "DT_FLOAT"}, "value": {"tensor": {"dtype": "DT_FLOAT", "tensorShape": {}}}}}, {"name": "StatefulPartitionedCall/model/activation_13/PartitionedCall/PartitionedCall/Gelu/Cast/x", "op": "Const", "attr": {"dtype": {"type": "DT_FLOAT"}, "value": {"tensor": {"dtype": "DT_FLOAT", "tensorShape": {}}}}}, {"name": "StatefulPartitionedCall/model/activation_12/PartitionedCall/PartitionedCall/Gelu/mul/x", "op": "Const", "attr": {"dtype": {"type": "DT_FLOAT"}, "value": {"tensor": {"dtype": "DT_FLOAT", "tensorShape": {}}}}}, {"name": "StatefulPartitionedCall/model/activation_12/PartitionedCall/PartitionedCall/Gelu/add_1/x", "op": "Const", "attr": {"dtype": {"type": "DT_FLOAT"}, "value": {"tensor": {"dtype": "DT_FLOAT", "tensorShape": {}}}}}, {"name": "StatefulPartitionedCall/model/activation_12/PartitionedCall/PartitionedCall/Gelu/mul_2/x", "op": "Const", "attr": {"dtype": {"type": "DT_FLOAT"}, "value": {"tensor": {"dtype": "DT_FLOAT", "tensorShape": {}}}}}, {"name": "StatefulPartitionedCall/model/activation_12/PartitionedCall/PartitionedCall/Gelu/Cast/x", "op": "Const", "attr": {"dtype": {"type": "DT_FLOAT"}, "value": {"tensor": {"dtype": "DT_FLOAT", "tensorShape": {}}}}}, {"name": "StatefulPartitionedCall/model/activation_11/PartitionedCall/PartitionedCall/Gelu/mul/x", "op": "Const", "attr": {"dtype": {"type": "DT_FLOAT"}, "value": {"tensor": {"dtype": "DT_FLOAT", "tensorShape": {}}}}}, {"name": "StatefulPartitionedCall/model/activation_11/PartitionedCall/PartitionedCall/Gelu/add_1/x", "op": "Const", "attr": {"dtype": {"type": "DT_FLOAT"}, "value": {"tensor": {"dtype": "DT_FLOAT", "tensorShape": {}}}}}, {"name": "StatefulPartitionedCall/model/activation_11/PartitionedCall/PartitionedCall/Gelu/mul_2/x", "op": "Const", "attr": {"dtype": {"type": "DT_FLOAT"}, "value": {"tensor": {"dtype": "DT_FLOAT", "tensorShape": {}}}}}, {"name": "StatefulPartitionedCall/model/activation_11/PartitionedCall/PartitionedCall/Gelu/Cast/x", "op": "Const", "attr": {"dtype": {"type": "DT_FLOAT"}, "value": {"tensor": {"dtype": "DT_FLOAT", "tensorShape": {}}}}}, {"name": "StatefulPartitionedCall/model/activation_10/PartitionedCall/PartitionedCall/Gelu/mul/x", "op": "Const", "attr": {"dtype": {"type": "DT_FLOAT"}, "value": {"tensor": {"dtype": "DT_FLOAT", "tensorShape": {}}}}}, {"name": "StatefulPartitionedCall/model/activation_10/PartitionedCall/PartitionedCall/Gelu/add_1/x", "op": "Const", "attr": {"dtype": {"type": "DT_FLOAT"}, "value": {"tensor": {"dtype": "DT_FLOAT", "tensorShape": {}}}}}, {"name": "StatefulPartitionedCall/model/activation_10/PartitionedCall/PartitionedCall/Gelu/mul_2/x", "op": "Const", "attr": {"dtype": {"type": "DT_FLOAT"}, "value": {"tensor": {"dtype": "DT_FLOAT", "tensorShape": {}}}}}, {"name": "StatefulPartitionedCall/model/activation_10/PartitionedCall/PartitionedCall/Gelu/Cast/x", "op": "Const", "attr": {"dtype": {"type": "DT_FLOAT"}, "value": {"tensor": {"dtype": "DT_FLOAT", "tensorShape": {}}}}}, {"name": "StatefulPartitionedCall/model/activation_9/PartitionedCall/PartitionedCall/Gelu/mul/x", "op": "Const", "attr": {"dtype": {"type": "DT_FLOAT"}, "value": {"tensor": {"dtype": "DT_FLOAT", "tensorShape": {}}}}}, {"name": "StatefulPartitionedCall/model/activation_9/PartitionedCall/PartitionedCall/Gelu/add_1/x", "op": "Const", "attr": {"dtype": {"type": "DT_FLOAT"}, "value": {"tensor": {"dtype": "DT_FLOAT", "tensorShape": {}}}}}, {"name": "StatefulPartitionedCall/model/activation_9/PartitionedCall/PartitionedCall/Gelu/mul_2/x", "op": "Const", "attr": {"dtype": {"type": "DT_FLOAT"}, "value": {"tensor": {"dtype": "DT_FLOAT", "tensorShape": {}}}}}, {"name": "StatefulPartitionedCall/model/activation_9/PartitionedCall/PartitionedCall/Gelu/Cast/x", "op": "Const", "attr": {"dtype": {"type": "DT_FLOAT"}, "value": {"tensor": {"dtype": "DT_FLOAT", "tensorShape": {}}}}}, {"name": "StatefulPartitionedCall/model/activation_8/PartitionedCall/PartitionedCall/Gelu/mul/x", "op": "Const", "attr": {"dtype": {"type": "DT_FLOAT"}, "value": {"tensor": {"dtype": "DT_FLOAT", "tensorShape": {}}}}}, {"name": "StatefulPartitionedCall/model/activation_8/PartitionedCall/PartitionedCall/Gelu/add_1/x", "op": "Const", "attr": {"dtype": {"type": "DT_FLOAT"}, "value": {"tensor": {"dtype": "DT_FLOAT", "tensorShape": {}}}}}, {"name": "StatefulPartitionedCall/model/activation_8/PartitionedCall/PartitionedCall/Gelu/mul_2/x", "op": "Const", "attr": {"dtype": {"type": "DT_FLOAT"}, "value": {"tensor": {"dtype": "DT_FLOAT", "tensorShape": {}}}}}, {"name": "StatefulPartitionedCall/model/activation_8/PartitionedCall/PartitionedCall/Gelu/Cast/x", "op": "Const", "attr": {"dtype": {"type": "DT_FLOAT"}, "value": {"tensor": {"dtype": "DT_FLOAT", "tensorShape": {}}}}}, {"name": "StatefulPartitionedCall/model/activation_7/PartitionedCall/PartitionedCall/Gelu/mul/x", "op": "Const", "attr": {"dtype": {"type": "DT_FLOAT"}, "value": {"tensor": {"dtype": "DT_FLOAT", "tensorShape": {}}}}}, {"name": "StatefulPartitionedCall/model/activation_7/PartitionedCall/PartitionedCall/Gelu/add_1/x", "op": "Const", "attr": {"dtype": {"type": "DT_FLOAT"}, "value": {"tensor": {"dtype": "DT_FLOAT", "tensorShape": {}}}}}, {"name": "StatefulPartitionedCall/model/activation_7/PartitionedCall/PartitionedCall/Gelu/mul_2/x", "op": "Const", "attr": {"dtype": {"type": "DT_FLOAT"}, "value": {"tensor": {"dtype": "DT_FLOAT", "tensorShape": {}}}}}, {"name": "StatefulPartitionedCall/model/activation_7/PartitionedCall/PartitionedCall/Gelu/Cast/x", "op": "Const", "attr": {"dtype": {"type": "DT_FLOAT"}, "value": {"tensor": {"dtype": "DT_FLOAT", "tensorShape": {}}}}}, {"name": "StatefulPartitionedCall/model/activation_6/PartitionedCall/PartitionedCall/Gelu/mul/x", "op": "Const", "attr": {"dtype": {"type": "DT_FLOAT"}, "value": {"tensor": {"dtype": "DT_FLOAT", "tensorShape": {}}}}}, {"name": "StatefulPartitionedCall/model/activation_6/PartitionedCall/PartitionedCall/Gelu/add_1/x", "op": "Const", "attr": {"dtype": {"type": "DT_FLOAT"}, "value": {"tensor": {"dtype": "DT_FLOAT", "tensorShape": {}}}}}, {"name": "StatefulPartitionedCall/model/activation_6/PartitionedCall/PartitionedCall/Gelu/mul_2/x", "op": "Const", "attr": {"dtype": {"type": "DT_FLOAT"}, "value": {"tensor": {"dtype": "DT_FLOAT", "tensorShape": {}}}}}, {"name": "StatefulPartitionedCall/model/activation_6/PartitionedCall/PartitionedCall/Gelu/Cast/x", "op": "Const", "attr": {"dtype": {"type": "DT_FLOAT"}, "value": {"tensor": {"dtype": "DT_FLOAT", "tensorShape": {}}}}}, {"name": "StatefulPartitionedCall/model/activation_5/PartitionedCall/PartitionedCall/Gelu/mul/x", "op": "Const", "attr": {"dtype": {"type": "DT_FLOAT"}, "value": {"tensor": {"dtype": "DT_FLOAT", "tensorShape": {}}}}}, {"name": "StatefulPartitionedCall/model/activation_5/PartitionedCall/PartitionedCall/Gelu/add_1/x", "op": "Const", "attr": {"dtype": {"type": "DT_FLOAT"}, "value": {"tensor": {"dtype": "DT_FLOAT", "tensorShape": {}}}}}, {"name": "StatefulPartitionedCall/model/activation_5/PartitionedCall/PartitionedCall/Gelu/mul_2/x", "op": "Const", "attr": {"dtype": {"type": "DT_FLOAT"}, "value": {"tensor": {"dtype": "DT_FLOAT", "tensorShape": {}}}}}, {"name": "StatefulPartitionedCall/model/activation_5/PartitionedCall/PartitionedCall/Gelu/Cast/x", "op": "Const", "attr": {"dtype": {"type": "DT_FLOAT"}, "value": {"tensor": {"dtype": "DT_FLOAT", "tensorShape": {}}}}}, {"name": "StatefulPartitionedCall/model/activation_4/PartitionedCall/PartitionedCall/Gelu/mul/x", "op": "Const", "attr": {"dtype": {"type": "DT_FLOAT"}, "value": {"tensor": {"dtype": "DT_FLOAT", "tensorShape": {}}}}}, {"name": "StatefulPartitionedCall/model/activation_4/PartitionedCall/PartitionedCall/Gelu/add_1/x", "op": "Const", "attr": {"dtype": {"type": "DT_FLOAT"}, "value": {"tensor": {"dtype": "DT_FLOAT", "tensorShape": {}}}}}, {"name": "StatefulPartitionedCall/model/activation_4/PartitionedCall/PartitionedCall/Gelu/mul_2/x", "op": "Const", "attr": {"dtype": {"type": "DT_FLOAT"}, "value": {"tensor": {"dtype": "DT_FLOAT", "tensorShape": {}}}}}, {"name": "StatefulPartitionedCall/model/activation_4/PartitionedCall/PartitionedCall/Gelu/Cast/x", "op": "Const", "attr": {"dtype": {"type": "DT_FLOAT"}, "value": {"tensor": {"dtype": "DT_FLOAT", "tensorShape": {}}}}}, {"name": "StatefulPartitionedCall/model/activation_3/PartitionedCall/PartitionedCall/Gelu/mul/x", "op": "Const", "attr": {"dtype": {"type": "DT_FLOAT"}, "value": {"tensor": {"dtype": "DT_FLOAT", "tensorShape": {}}}}}, {"name": "StatefulPartitionedCall/model/activation_3/PartitionedCall/PartitionedCall/Gelu/add_1/x", "op": "Const", "attr": {"dtype": {"type": "DT_FLOAT"}, "value": {"tensor": {"dtype": "DT_FLOAT", "tensorShape": {}}}}}, {"name": "StatefulPartitionedCall/model/activation_3/PartitionedCall/PartitionedCall/Gelu/mul_2/x", "op": "Const", "attr": {"dtype": {"type": "DT_FLOAT"}, "value": {"tensor": {"dtype": "DT_FLOAT", "tensorShape": {}}}}}, {"name": "StatefulPartitionedCall/model/activation_3/PartitionedCall/PartitionedCall/Gelu/Cast/x", "op": "Const", "attr": {"dtype": {"type": "DT_FLOAT"}, "value": {"tensor": {"dtype": "DT_FLOAT", "tensorShape": {}}}}}, {"name": "StatefulPartitionedCall/model/activation_2/PartitionedCall/PartitionedCall/Gelu/mul/x", "op": "Const", "attr": {"dtype": {"type": "DT_FLOAT"}, "value": {"tensor": {"dtype": "DT_FLOAT", "tensorShape": {}}}}}, {"name": "StatefulPartitionedCall/model/activation_2/PartitionedCall/PartitionedCall/Gelu/add_1/x", "op": "Const", "attr": {"dtype": {"type": "DT_FLOAT"}, "value": {"tensor": {"dtype": "DT_FLOAT", "tensorShape": {}}}}}, {"name": "StatefulPartitionedCall/model/activation_2/PartitionedCall/PartitionedCall/Gelu/mul_2/x", "op": "Const", "attr": {"dtype": {"type": "DT_FLOAT"}, "value": {"tensor": {"dtype": "DT_FLOAT", "tensorShape": {}}}}}, {"name": "StatefulPartitionedCall/model/activation_2/PartitionedCall/PartitionedCall/Gelu/Cast/x", "op": "Const", "attr": {"dtype": {"type": "DT_FLOAT"}, "value": {"tensor": {"dtype": "DT_FLOAT", "tensorShape": {}}}}}, {"name": "StatefulPartitionedCall/model/activation_1/PartitionedCall/PartitionedCall/Gelu/mul/x", "op": "Const", "attr": {"dtype": {"type": "DT_FLOAT"}, "value": {"tensor": {"dtype": "DT_FLOAT", "tensorShape": {}}}}}, {"name": "StatefulPartitionedCall/model/activation_1/PartitionedCall/PartitionedCall/Gelu/add_1/x", "op": "Const", "attr": {"dtype": {"type": "DT_FLOAT"}, "value": {"tensor": {"dtype": "DT_FLOAT", "tensorShape": {}}}}}, {"name": "StatefulPartitionedCall/model/activation_1/PartitionedCall/PartitionedCall/Gelu/mul_2/x", "op": "Const", "attr": {"dtype": {"type": "DT_FLOAT"}, "value": {"tensor": {"dtype": "DT_FLOAT", "tensorShape": {}}}}}, {"name": "StatefulPartitionedCall/model/activation_1/PartitionedCall/PartitionedCall/Gelu/Cast/x", "op": "Const", "attr": {"dtype": {"type": "DT_FLOAT"}, "value": {"tensor": {"dtype": "DT_FLOAT", "tensorShape": {}}}}}, {"name": "StatefulPartitionedCall/model/activation/PartitionedCall/PartitionedCall/Gelu/mul/x", "op": "Const", "attr": {"dtype": {"type": "DT_FLOAT"}, "value": {"tensor": {"dtype": "DT_FLOAT", "tensorShape": {}}}}}, {"name": "StatefulPartitionedCall/model/activation/PartitionedCall/PartitionedCall/Gelu/add_1/x", "op": "Const", "attr": {"dtype": {"type": "DT_FLOAT"}, "value": {"tensor": {"dtype": "DT_FLOAT", "tensorShape": {}}}}}, {"name": "StatefulPartitionedCall/model/activation/PartitionedCall/PartitionedCall/Gelu/mul_2/x", "op": "Const", "attr": {"dtype": {"type": "DT_FLOAT"}, "value": {"tensor": {"dtype": "DT_FLOAT", "tensorShape": {}}}}}, {"name": "StatefulPartitionedCall/model/activation/PartitionedCall/PartitionedCall/Gelu/Cast/x", "op": "Const", "attr": {"dtype": {"type": "DT_FLOAT"}, "value": {"tensor": {"dtype": "DT_FLOAT", "tensorShape": {}}}}}, {"name": "StatefulPartitionedCall/model/activation/PartitionedCall/PartitionedCall/Gelu/Pow/y", "op": "Const", "attr": {"dtype": {"type": "DT_FLOAT"}, "value": {"tensor": {"dtype": "DT_FLOAT", "tensorShape": {}}}}}, {"name": "StatefulPartitionedCall/model/activation_1/PartitionedCall/PartitionedCall/Gelu/Pow/y", "op": "Const", "attr": {"value": {"tensor": {"dtype": "DT_FLOAT", "tensorShape": {}}}, "dtype": {"type": "DT_FLOAT"}}}, {"name": "StatefulPartitionedCall/model/activation_2/PartitionedCall/PartitionedCall/Gelu/Pow/y", "op": "Const", "attr": {"dtype": {"type": "DT_FLOAT"}, "value": {"tensor": {"dtype": "DT_FLOAT", "tensorShape": {}}}}}, {"name": "StatefulPartitionedCall/model/activation_3/PartitionedCall/PartitionedCall/Gelu/Pow/y", "op": "Const", "attr": {"dtype": {"type": "DT_FLOAT"}, "value": {"tensor": {"dtype": "DT_FLOAT", "tensorShape": {}}}}}, {"name": "StatefulPartitionedCall/model/activation_4/PartitionedCall/PartitionedCall/Gelu/Pow/y", "op": "Const", "attr": {"dtype": {"type": "DT_FLOAT"}, "value": {"tensor": {"dtype": "DT_FLOAT", "tensorShape": {}}}}}, {"name": "StatefulPartitionedCall/model/activation_5/PartitionedCall/PartitionedCall/Gelu/Pow/y", "op": "Const", "attr": {"dtype": {"type": "DT_FLOAT"}, "value": {"tensor": {"dtype": "DT_FLOAT", "tensorShape": {}}}}}, {"name": "StatefulPartitionedCall/model/activation_6/PartitionedCall/PartitionedCall/Gelu/Pow/y", "op": "Const", "attr": {"dtype": {"type": "DT_FLOAT"}, "value": {"tensor": {"dtype": "DT_FLOAT", "tensorShape": {}}}}}, {"name": "StatefulPartitionedCall/model/activation_7/PartitionedCall/PartitionedCall/Gelu/Pow/y", "op": "Const", "attr": {"dtype": {"type": "DT_FLOAT"}, "value": {"tensor": {"dtype": "DT_FLOAT", "tensorShape": {}}}}}, {"name": "StatefulPartitionedCall/model/activation_8/PartitionedCall/PartitionedCall/Gelu/Pow/y", "op": "Const", "attr": {"dtype": {"type": "DT_FLOAT"}, "value": {"tensor": {"dtype": "DT_FLOAT", "tensorShape": {}}}}}, {"name": "StatefulPartitionedCall/model/activation_9/PartitionedCall/PartitionedCall/Gelu/Pow/y", "op": "Const", "attr": {"dtype": {"type": "DT_FLOAT"}, "value": {"tensor": {"dtype": "DT_FLOAT", "tensorShape": {}}}}}, {"name": "StatefulPartitionedCall/model/activation_10/PartitionedCall/PartitionedCall/Gelu/Pow/y", "op": "Const", "attr": {"value": {"tensor": {"dtype": "DT_FLOAT", "tensorShape": {}}}, "dtype": {"type": "DT_FLOAT"}}}, {"name": "StatefulPartitionedCall/model/activation_11/PartitionedCall/PartitionedCall/Gelu/Pow/y", "op": "Const", "attr": {"dtype": {"type": "DT_FLOAT"}, "value": {"tensor": {"dtype": "DT_FLOAT", "tensorShape": {}}}}}, {"name": "StatefulPartitionedCall/model/activation_12/PartitionedCall/PartitionedCall/Gelu/Pow/y", "op": "Const", "attr": {"dtype": {"type": "DT_FLOAT"}, "value": {"tensor": {"dtype": "DT_FLOAT", "tensorShape": {}}}}}, {"name": "StatefulPartitionedCall/model/activation_13/PartitionedCall/PartitionedCall/Gelu/Pow/y", "op": "Const", "attr": {"dtype": {"type": "DT_FLOAT"}, "value": {"tensor": {"dtype": "DT_FLOAT", "tensorShape": {}}}}}, {"name": "StatefulPartitionedCall/model/activation_14/PartitionedCall/PartitionedCall/Gelu/Pow/y", "op": "Const", "attr": {"dtype": {"type": "DT_FLOAT"}, "value": {"tensor": {"dtype": "DT_FLOAT", "tensorShape": {}}}}}, {"name": "StatefulPartitionedCall/model/activation_15/PartitionedCall/PartitionedCall/Gelu/Pow/y", "op": "Const", "attr": {"dtype": {"type": "DT_FLOAT"}, "value": {"tensor": {"dtype": "DT_FLOAT", "tensorShape": {}}}}}, {"name": "StatefulPartitionedCall/model/flatten/Const", "op": "Const", "attr": {"dtype": {"type": "DT_INT32"}, "value": {"tensor": {"dtype": "DT_INT32", "tensorShape": {"dim": [{"size": "2"}]}}}}}, {"name": "StatefulPartitionedCall/model/dense/MatMul/ReadVariableOp", "op": "Const", "attr": {"dtype": {"type": "DT_FLOAT"}, "value": {"tensor": {"dtype": "DT_FLOAT", "tensorShape": {"dim": [{"size": "36"}, {"size": "128"}]}}}}}, {"name": "StatefulPartitionedCall/model/activation_16/PartitionedCall/PartitionedCall/Gelu/Pow/y", "op": "Const", "attr": {"value": {"tensor": {"dtype": "DT_FLOAT", "tensorShape": {}}}, "dtype": {"type": "DT_FLOAT"}}}, {"name": "StatefulPartitionedCall/model/value_head/MatMul/ReadVariableOp", "op": "Const", "attr": {"dtype": {"type": "DT_FLOAT"}, "value": {"tensor": {"dtype": "DT_FLOAT", "tensorShape": {"dim": [{"size": "128"}, {"size": "1"}]}}}}}, {"name": "main_input", "op": "Placeholder", "attr": {"shape": {"shape": {"dim": [{"size": "-1"}, {"size": "6"}, {"size": "6"}, {"size": "51"}]}}, "dtype": {"type": "DT_FLOAT"}}}, {"name": "StatefulPartitionedCall/model/conv2d/Conv2D_weights", "op": "Const", "attr": {"dtype": {"type": "DT_FLOAT"}, "value": {"tensor": {"dtype": "DT_FLOAT", "tensorShape": {"dim": [{"size": "3"}, {"size": "3"}, {"size": "51"}, {"size": "48"}]}}}}}, {"name": "StatefulPartitionedCall/model/conv2d/Conv2D_bn_offset", "op": "Const", "attr": {"dtype": {"type": "DT_FLOAT"}, "value": {"tensor": {"dtype": "DT_FLOAT", "tensorShape": {"dim": [{"size": "48"}]}}}}}, {"name": "StatefulPartitionedCall/model/conv2d_1/Conv2D_weights", "op": "Const", "attr": {"dtype": {"type": "DT_FLOAT"}, "value": {"tensor": {"dtype": "DT_FLOAT", "tensorShape": {"dim": [{"size": "3"}, {"size": "3"}, {"size": "48"}, {"size": "48"}]}}}}}, {"name": "StatefulPartitionedCall/model/conv2d_1/Conv2D_bn_offset", "op": "Const", "attr": {"dtype": {"type": "DT_FLOAT"}, "value": {"tensor": {"dtype": "DT_FLOAT", "tensorShape": {"dim": [{"size": "48"}]}}}}}, {"name": "StatefulPartitionedCall/model/conv2d_2/Conv2D_weights", "op": "Const", "attr": {"dtype": {"type": "DT_FLOAT"}, "value": {"tensor": {"dtype": "DT_FLOAT", "tensorShape": {"dim": [{"size": "3"}, {"size": "3"}, {"size": "48"}, {"size": "48"}]}}}}}, {"name": "StatefulPartitionedCall/model/conv2d_2/Conv2D_bn_offset", "op": "Const", "attr": {"dtype": {"type": "DT_FLOAT"}, "value": {"tensor": {"dtype": "DT_FLOAT", "tensorShape": {"dim": [{"size": "48"}]}}}}}, {"name": "StatefulPartitionedCall/model/conv2d_3/Conv2D_weights", "op": "Const", "attr": {"dtype": {"type": "DT_FLOAT"}, "value": {"tensor": {"dtype": "DT_FLOAT", "tensorShape": {"dim": [{"size": "3"}, {"size": "3"}, {"size": "48"}, {"size": "48"}]}}}}}, {"name": "StatefulPartitionedCall/model/conv2d_3/Conv2D_bn_offset", "op": "Const", "attr": {"dtype": {"type": "DT_FLOAT"}, "value": {"tensor": {"dtype": "DT_FLOAT", "tensorShape": {"dim": [{"size": "48"}]}}}}}, {"name": "StatefulPartitionedCall/model/conv2d_4/Conv2D_weights", "op": "Const", "attr": {"dtype": {"type": "DT_FLOAT"}, "value": {"tensor": {"dtype": "DT_FLOAT", "tensorShape": {"dim": [{"size": "3"}, {"size": "3"}, {"size": "48"}, {"size": "48"}]}}}}}, {"name": "StatefulPartitionedCall/model/conv2d_4/Conv2D_bn_offset", "op": "Const", "attr": {"dtype": {"type": "DT_FLOAT"}, "value": {"tensor": {"dtype": "DT_FLOAT", "tensorShape": {"dim": [{"size": "48"}]}}}}}, {"name": "StatefulPartitionedCall/model/conv2d_5/Conv2D_weights", "op": "Const", "attr": {"dtype": {"type": "DT_FLOAT"}, "value": {"tensor": {"dtype": "DT_FLOAT", "tensorShape": {"dim": [{"size": "3"}, {"size": "3"}, {"size": "48"}, {"size": "48"}]}}}}}, {"name": "StatefulPartitionedCall/model/conv2d_5/Conv2D_bn_offset", "op": "Const", "attr": {"dtype": {"type": "DT_FLOAT"}, "value": {"tensor": {"dtype": "DT_FLOAT", "tensorShape": {"dim": [{"size": "48"}]}}}}}, {"name": "StatefulPartitionedCall/model/conv2d_6/Conv2D_weights", "op": "Const", "attr": {"dtype": {"type": "DT_FLOAT"}, "value": {"tensor": {"dtype": "DT_FLOAT", "tensorShape": {"dim": [{"size": "3"}, {"size": "3"}, {"size": "48"}, {"size": "48"}]}}}}}, {"name": "StatefulPartitionedCall/model/conv2d_6/Conv2D_bn_offset", "op": "Const", "attr": {"dtype": {"type": "DT_FLOAT"}, "value": {"tensor": {"dtype": "DT_FLOAT", "tensorShape": {"dim": [{"size": "48"}]}}}}}, {"name": "StatefulPartitionedCall/model/conv2d_7/Conv2D_weights", "op": "Const", "attr": {"dtype": {"type": "DT_FLOAT"}, "value": {"tensor": {"dtype": "DT_FLOAT", "tensorShape": {"dim": [{"size": "3"}, {"size": "3"}, {"size": "48"}, {"size": "48"}]}}}}}, {"name": "StatefulPartitionedCall/model/conv2d_7/Conv2D_bn_offset", "op": "Const", "attr": {"dtype": {"type": "DT_FLOAT"}, "value": {"tensor": {"dtype": "DT_FLOAT", "tensorShape": {"dim": [{"size": "48"}]}}}}}, {"name": "StatefulPartitionedCall/model/conv2d_8/Conv2D_weights", "op": "Const", "attr": {"dtype": {"type": "DT_FLOAT"}, "value": {"tensor": {"dtype": "DT_FLOAT", "tensorShape": {"dim": [{"size": "3"}, {"size": "3"}, {"size": "48"}, {"size": "48"}]}}}}}, {"name": "StatefulPartitionedCall/model/conv2d_8/Conv2D_bn_offset", "op": "Const", "attr": {"dtype": {"type": "DT_FLOAT"}, "value": {"tensor": {"dtype": "DT_FLOAT", "tensorShape": {"dim": [{"size": "48"}]}}}}}, {"name": "StatefulPartitionedCall/model/conv2d_9/Conv2D_weights", "op": "Const", "attr": {"dtype": {"type": "DT_FLOAT"}, "value": {"tensor": {"dtype": "DT_FLOAT", "tensorShape": {"dim": [{"size": "3"}, {"size": "3"}, {"size": "48"}, {"size": "48"}]}}}}}, {"name": "StatefulPartitionedCall/model/conv2d_9/Conv2D_bn_offset", "op": "Const", "attr": {"dtype": {"type": "DT_FLOAT"}, "value": {"tensor": {"dtype": "DT_FLOAT", "tensorShape": {"dim": [{"size": "48"}]}}}}}, {"name": "StatefulPartitionedCall/model/conv2d_10/Conv2D_weights", "op": "Const", "attr": {"dtype": {"type": "DT_FLOAT"}, "value": {"tensor": {"dtype": "DT_FLOAT", "tensorShape": {"dim": [{"size": "3"}, {"size": "3"}, {"size": "48"}, {"size": "48"}]}}}}}, {"name": "StatefulPartitionedCall/model/conv2d_10/Conv2D_bn_offset", "op": "Const", "attr": {"dtype": {"type": "DT_FLOAT"}, "value": {"tensor": {"dtype": "DT_FLOAT", "tensorShape": {"dim": [{"size": "48"}]}}}}}, {"name": "StatefulPartitionedCall/model/conv2d_11/Conv2D_weights", "op": "Const", "attr": {"dtype": {"type": "DT_FLOAT"}, "value": {"tensor": {"dtype": "DT_FLOAT", "tensorShape": {"dim": [{"size": "3"}, {"size": "3"}, {"size": "48"}, {"size": "48"}]}}}}}, {"name": "StatefulPartitionedCall/model/conv2d_11/Conv2D_bn_offset", "op": "Const", "attr": {"dtype": {"type": "DT_FLOAT"}, "value": {"tensor": {"dtype": "DT_FLOAT", "tensorShape": {"dim": [{"size": "48"}]}}}}}, {"name": "StatefulPartitionedCall/model/conv2d_12/Conv2D_weights", "op": "Const", "attr": {"dtype": {"type": "DT_FLOAT"}, "value": {"tensor": {"dtype": "DT_FLOAT", "tensorShape": {"dim": [{"size": "3"}, {"size": "3"}, {"size": "48"}, {"size": "48"}]}}}}}, {"name": "StatefulPartitionedCall/model/conv2d_12/Conv2D_bn_offset", "op": "Const", "attr": {"dtype": {"type": "DT_FLOAT"}, "value": {"tensor": {"dtype": "DT_FLOAT", "tensorShape": {"dim": [{"size": "48"}]}}}}}, {"name": "StatefulPartitionedCall/model/conv2d_13/Conv2D_weights", "op": "Const", "attr": {"dtype": {"type": "DT_FLOAT"}, "value": {"tensor": {"dtype": "DT_FLOAT", "tensorShape": {"dim": [{"size": "3"}, {"size": "3"}, {"size": "48"}, {"size": "48"}]}}}}}, {"name": "StatefulPartitionedCall/model/conv2d_17/Conv2D_weights", "op": "Const", "attr": {"dtype": {"type": "DT_FLOAT"}, "value": {"tensor": {"dtype": "DT_FLOAT", "tensorShape": {"dim": [{"size": "1"}, {"size": "1"}, {"size": "128"}, {"size": "54"}]}}}}}, {"name": "StatefulPartitionedCall/model/conv2d_13/Conv2D_bn_offset", "op": "Const", "attr": {"dtype": {"type": "DT_FLOAT"}, "value": {"tensor": {"dtype": "DT_FLOAT", "tensorShape": {"dim": [{"size": "48"}]}}}}}, {"name": "StatefulPartitionedCall/model/conv2d_14/Conv2D_weights", "op": "Const", "attr": {"dtype": {"type": "DT_FLOAT"}, "value": {"tensor": {"dtype": "DT_FLOAT", "tensorShape": {"dim": [{"size": "3"}, {"size": "3"}, {"size": "48"}, {"size": "48"}]}}}}}, {"name": "StatefulPartitionedCall/model/conv2d_14/Conv2D_bn_offset", "op": "Const", "attr": {"dtype": {"type": "DT_FLOAT"}, "value": {"tensor": {"dtype": "DT_FLOAT", "tensorShape": {"dim": [{"size": "48"}]}}}}}, {"name": "StatefulPartitionedCall/model/conv2d_16/Conv2D_weights", "op": "Const", "attr": {"dtype": {"type": "DT_FLOAT"}, "value": {"tensor": {"dtype": "DT_FLOAT", "tensorShape": {"dim": [{"size": "3"}, {"size": "3"}, {"size": "48"}, {"size": "128"}]}}}}}, {"name": "StatefulPartitionedCall/model/conv2d_17/Conv2D_bn_offset", "op": "Const", "attr": {"dtype": {"type": "DT_FLOAT"}, "value": {"tensor": {"dtype": "DT_FLOAT", "tensorShape": {"dim": [{"size": "54"}]}}}}}, {"name": "StatefulPartitionedCall/model/conv2d_16/Conv2D_bn_offset", "op": "Const", "attr": {"dtype": {"type": "DT_FLOAT"}, "value": {"tensor": {"dtype": "DT_FLOAT", "tensorShape": {"dim": [{"size": "128"}]}}}}}, {"name": "StatefulPartitionedCall/model/conv2d_15/Conv2D_weights", "op": "Const", "attr": {"dtype": {"type": "DT_FLOAT"}, "value": {"tensor": {"dtype": "DT_FLOAT", "tensorShape": {"dim": [{"size": "1"}, {"size": "1"}, {"size": "48"}, {"size": "1"}]}}}}}, {"name": "StatefulPartitionedCall/model/conv2d_15/Conv2D_bn_offset", "op": "Const", "attr": {"dtype": {"type": "DT_FLOAT"}, "value": {"tensor": {"dtype": "DT_FLOAT", "tensorShape": {"dim": [{"size": "1"}]}}}}}, {"name": "StatefulPartitionedCall/model/batch_normalization/FusedBatchNormV3", "op": "_FusedConv2D", "input": ["main_input", "StatefulPartitionedCall/model/conv2d/Conv2D_weights", "StatefulPartitionedCall/model/conv2d/Conv2D_bn_offset"], "device": "/device:CPU:0", "attr": {"fused_ops": {"list": {"s": ["Qmlhc0FkZA=="]}}, "use_cudnn_on_gpu": {"b": true}, "explicit_paddings": {"list": {}}, "num_args": {"i": "1"}, "epsilon": {"f": 0.0}, "data_format": {"s": "TkhXQw=="}, "T": {"type": "DT_FLOAT"}, "strides": {"list": {"i": ["1", "1", "1", "1"]}}, "padding": {"s": "U0FNRQ=="}, "dilations": {"list": {"i": ["1", "1", "1", "1"]}}}}, {"name": "StatefulPartitionedCall/model/activation/PartitionedCall/PartitionedCall/Gelu/mul", "op": "Mul", "input": ["StatefulPartitionedCall/model/activation/PartitionedCall/PartitionedCall/Gelu/mul/x", "StatefulPartitionedCall/model/batch_normalization/FusedBatchNormV3"], "attr": {"T": {"type": "DT_FLOAT"}, "_grappler_ArithmeticOptimizer_MinimizeBroadcasts": {"b": true}}}, {"name": "StatefulPartitionedCall/model/activation/PartitionedCall/PartitionedCall/Gelu/Pow", "op": "Pow", "input": ["StatefulPartitionedCall/model/batch_normalization/FusedBatchNormV3", "StatefulPartitionedCall/model/activation/PartitionedCall/PartitionedCall/Gelu/Pow/y"], "attr": {"T": {"type": "DT_FLOAT"}}}, {"name": "StatefulPartitionedCall/model/activation/PartitionedCall/PartitionedCall/Gelu/mul_1", "op": "Mul", "input": ["StatefulPartitionedCall/model/activation/PartitionedCall/PartitionedCall/Gelu/Cast/x", "StatefulPartitionedCall/model/activation/PartitionedCall/PartitionedCall/Gelu/Pow"], "attr": {"T": {"type": "DT_FLOAT"}}}, {"name": "StatefulPartitionedCall/model/activation/PartitionedCall/PartitionedCall/Gelu/add", "op": "AddV2", "input": ["StatefulPartitionedCall/model/batch_normalization/FusedBatchNormV3", "StatefulPartitionedCall/model/activation/PartitionedCall/PartitionedCall/Gelu/mul_1"], "attr": {"T": {"type": "DT_FLOAT"}}}, {"name": "StatefulPartitionedCall/model/activation/PartitionedCall/PartitionedCall/Gelu/mul_2", "op": "Mul", "input": ["StatefulPartitionedCall/model/activation/PartitionedCall/PartitionedCall/Gelu/mul_2/x", "StatefulPartitionedCall/model/activation/PartitionedCall/PartitionedCall/Gelu/add"], "attr": {"T": {"type": "DT_FLOAT"}}}, {"name": "StatefulPartitionedCall/model/activation/PartitionedCall/PartitionedCall/Gelu/Tanh", "op": "Tanh", "input": ["StatefulPartitionedCall/model/activation/PartitionedCall/PartitionedCall/Gelu/mul_2"], "attr": {"T": {"type": "DT_FLOAT"}}}, {"name": "StatefulPartitionedCall/model/activation/PartitionedCall/PartitionedCall/Gelu/add_1", "op": "AddV2", "input": ["StatefulPartitionedCall/model/activation/PartitionedCall/PartitionedCall/Gelu/add_1/x", "StatefulPartitionedCall/model/activation/PartitionedCall/PartitionedCall/Gelu/Tanh"], "attr": {"T": {"type": "DT_FLOAT"}}}, {"name": "StatefulPartitionedCall/model/activation/PartitionedCall/PartitionedCall/Gelu/mul_3", "op": "Mul", "input": ["StatefulPartitionedCall/model/activation/PartitionedCall/PartitionedCall/Gelu/mul", "StatefulPartitionedCall/model/activation/PartitionedCall/PartitionedCall/Gelu/add_1"], "attr": {"_grappler_ArithmeticOptimizer_MinimizeBroadcasts": {"b": true}, "T": {"type": "DT_FLOAT"}}}, {"name": "StatefulPartitionedCall/model/batch_normalization_1/FusedBatchNormV3", "op": "_FusedConv2D", "input": ["StatefulPartitionedCall/model/activation/PartitionedCall/PartitionedCall/Gelu/mul_3", "StatefulPartitionedCall/model/conv2d_1/Conv2D_weights", "StatefulPartitionedCall/model/conv2d_1/Conv2D_bn_offset"], "device": "/device:CPU:0", "attr": {"epsilon": {"f": 0.0}, "use_cudnn_on_gpu": {"b": true}, "T": {"type": "DT_FLOAT"}, "data_format": {"s": "TkhXQw=="}, "explicit_paddings": {"list": {}}, "num_args": {"i": "1"}, "fused_ops": {"list": {"s": ["Qmlhc0FkZA=="]}}, "dilations": {"list": {"i": ["1", "1", "1", "1"]}}, "strides": {"list": {"i": ["1", "1", "1", "1"]}}, "padding": {"s": "U0FNRQ=="}}}, {"name": "StatefulPartitionedCall/model/activation_1/PartitionedCall/PartitionedCall/Gelu/mul", "op": "Mul", "input": ["StatefulPartitionedCall/model/activation_1/PartitionedCall/PartitionedCall/Gelu/mul/x", "StatefulPartitionedCall/model/batch_normalization_1/FusedBatchNormV3"], "attr": {"_grappler_ArithmeticOptimizer_MinimizeBroadcasts": {"b": true}, "T": {"type": "DT_FLOAT"}}}, {"name": "StatefulPartitionedCall/model/activation_1/PartitionedCall/PartitionedCall/Gelu/Pow", "op": "Pow", "input": ["StatefulPartitionedCall/model/batch_normalization_1/FusedBatchNormV3", "StatefulPartitionedCall/model/activation_1/PartitionedCall/PartitionedCall/Gelu/Pow/y"], "attr": {"T": {"type": "DT_FLOAT"}}}, {"name": "StatefulPartitionedCall/model/activation_1/PartitionedCall/PartitionedCall/Gelu/mul_1", "op": "Mul", "input": ["StatefulPartitionedCall/model/activation_1/PartitionedCall/PartitionedCall/Gelu/Cast/x", "StatefulPartitionedCall/model/activation_1/PartitionedCall/PartitionedCall/Gelu/Pow"], "attr": {"T": {"type": "DT_FLOAT"}}}, {"name": "StatefulPartitionedCall/model/activation_1/PartitionedCall/PartitionedCall/Gelu/add", "op": "AddV2", "input": ["StatefulPartitionedCall/model/batch_normalization_1/FusedBatchNormV3", "StatefulPartitionedCall/model/activation_1/PartitionedCall/PartitionedCall/Gelu/mul_1"], "attr": {"T": {"type": "DT_FLOAT"}}}, {"name": "StatefulPartitionedCall/model/activation_1/PartitionedCall/PartitionedCall/Gelu/mul_2", "op": "Mul", "input": ["StatefulPartitionedCall/model/activation_1/PartitionedCall/PartitionedCall/Gelu/mul_2/x", "StatefulPartitionedCall/model/activation_1/PartitionedCall/PartitionedCall/Gelu/add"], "attr": {"T": {"type": "DT_FLOAT"}}}, {"name": "StatefulPartitionedCall/model/activation_1/PartitionedCall/PartitionedCall/Gelu/Tanh", "op": "Tanh", "input": ["StatefulPartitionedCall/model/activation_1/PartitionedCall/PartitionedCall/Gelu/mul_2"], "attr": {"T": {"type": "DT_FLOAT"}}}, {"name": "StatefulPartitionedCall/model/activation_1/PartitionedCall/PartitionedCall/Gelu/add_1", "op": "AddV2", "input": ["StatefulPartitionedCall/model/activation_1/PartitionedCall/PartitionedCall/Gelu/add_1/x", "StatefulPartitionedCall/model/activation_1/PartitionedCall/PartitionedCall/Gelu/Tanh"], "attr": {"T": {"type": "DT_FLOAT"}}}, {"name": "StatefulPartitionedCall/model/activation_1/PartitionedCall/PartitionedCall/Gelu/mul_3", "op": "Mul", "input": ["StatefulPartitionedCall/model/activation_1/PartitionedCall/PartitionedCall/Gelu/mul", "StatefulPartitionedCall/model/activation_1/PartitionedCall/PartitionedCall/Gelu/add_1"], "attr": {"_grappler_ArithmeticOptimizer_MinimizeBroadcasts": {"b": true}, "T": {"type": "DT_FLOAT"}}}, {"name": "StatefulPartitionedCall/model/batch_normalization_2/FusedBatchNormV3", "op": "_FusedConv2D", "input": ["StatefulPartitionedCall/model/activation_1/PartitionedCall/PartitionedCall/Gelu/mul_3", "StatefulPartitionedCall/model/conv2d_2/Conv2D_weights", "StatefulPartitionedCall/model/conv2d_2/Conv2D_bn_offset"], "device": "/device:CPU:0", "attr": {"T": {"type": "DT_FLOAT"}, "epsilon": {"f": 0.0}, "data_format": {"s": "TkhXQw=="}, "padding": {"s": "U0FNRQ=="}, "num_args": {"i": "1"}, "use_cudnn_on_gpu": {"b": true}, "explicit_paddings": {"list": {}}, "fused_ops": {"list": {"s": ["Qmlhc0FkZA=="]}}, "dilations": {"list": {"i": ["1", "1", "1", "1"]}}, "strides": {"list": {"i": ["1", "1", "1", "1"]}}}}, {"name": "StatefulPartitionedCall/model/add/add", "op": "AddV2", "input": ["StatefulPartitionedCall/model/activation/PartitionedCall/PartitionedCall/Gelu/mul_3", "StatefulPartitionedCall/model/batch_normalization_2/FusedBatchNormV3"], "attr": {"T": {"type": "DT_FLOAT"}}}, {"name": "StatefulPartitionedCall/model/activation_2/PartitionedCall/PartitionedCall/Gelu/mul", "op": "Mul", "input": ["StatefulPartitionedCall/model/activation_2/PartitionedCall/PartitionedCall/Gelu/mul/x", "StatefulPartitionedCall/model/add/add"], "attr": {"_grappler_ArithmeticOptimizer_MinimizeBroadcasts": {"b": true}, "T": {"type": "DT_FLOAT"}}}, {"name": "StatefulPartitionedCall/model/activation_2/PartitionedCall/PartitionedCall/Gelu/Pow", "op": "Pow", "input": ["StatefulPartitionedCall/model/add/add", "StatefulPartitionedCall/model/activation_2/PartitionedCall/PartitionedCall/Gelu/Pow/y"], "attr": {"T": {"type": "DT_FLOAT"}}}, {"name": "StatefulPartitionedCall/model/activation_2/PartitionedCall/PartitionedCall/Gelu/mul_1", "op": "Mul", "input": ["StatefulPartitionedCall/model/activation_2/PartitionedCall/PartitionedCall/Gelu/Cast/x", "StatefulPartitionedCall/model/activation_2/PartitionedCall/PartitionedCall/Gelu/Pow"], "attr": {"T": {"type": "DT_FLOAT"}}}, {"name": "StatefulPartitionedCall/model/activation_2/PartitionedCall/PartitionedCall/Gelu/add", "op": "AddV2", "input": ["StatefulPartitionedCall/model/add/add", "StatefulPartitionedCall/model/activation_2/PartitionedCall/PartitionedCall/Gelu/mul_1"], "attr": {"T": {"type": "DT_FLOAT"}}}, {"name": "StatefulPartitionedCall/model/activation_2/PartitionedCall/PartitionedCall/Gelu/mul_2", "op": "Mul", "input": ["StatefulPartitionedCall/model/activation_2/PartitionedCall/PartitionedCall/Gelu/mul_2/x", "StatefulPartitionedCall/model/activation_2/PartitionedCall/PartitionedCall/Gelu/add"], "attr": {"T": {"type": "DT_FLOAT"}}}, {"name": "StatefulPartitionedCall/model/activation_2/PartitionedCall/PartitionedCall/Gelu/Tanh", "op": "Tanh", "input": ["StatefulPartitionedCall/model/activation_2/PartitionedCall/PartitionedCall/Gelu/mul_2"], "attr": {"T": {"type": "DT_FLOAT"}}}, {"name": "StatefulPartitionedCall/model/activation_2/PartitionedCall/PartitionedCall/Gelu/add_1", "op": "AddV2", "input": ["StatefulPartitionedCall/model/activation_2/PartitionedCall/PartitionedCall/Gelu/add_1/x", "StatefulPartitionedCall/model/activation_2/PartitionedCall/PartitionedCall/Gelu/Tanh"], "attr": {"T": {"type": "DT_FLOAT"}}}, {"name": "StatefulPartitionedCall/model/activation_2/PartitionedCall/PartitionedCall/Gelu/mul_3", "op": "Mul", "input": ["StatefulPartitionedCall/model/activation_2/PartitionedCall/PartitionedCall/Gelu/mul", "StatefulPartitionedCall/model/activation_2/PartitionedCall/PartitionedCall/Gelu/add_1"], "attr": {"T": {"type": "DT_FLOAT"}, "_grappler_ArithmeticOptimizer_MinimizeBroadcasts": {"b": true}}}, {"name": "StatefulPartitionedCall/model/batch_normalization_3/FusedBatchNormV3", "op": "_FusedConv2D", "input": ["StatefulPartitionedCall/model/activation_2/PartitionedCall/PartitionedCall/Gelu/mul_3", "StatefulPartitionedCall/model/conv2d_3/Conv2D_weights", "StatefulPartitionedCall/model/conv2d_3/Conv2D_bn_offset"], "device": "/device:CPU:0", "attr": {"T": {"type": "DT_FLOAT"}, "epsilon": {"f": 0.0}, "data_format": {"s": "TkhXQw=="}, "padding": {"s": "U0FNRQ=="}, "num_args": {"i": "1"}, "use_cudnn_on_gpu": {"b": true}, "explicit_paddings": {"list": {}}, "fused_ops": {"list": {"s": ["Qmlhc0FkZA=="]}}, "dilations": {"list": {"i": ["1", "1", "1", "1"]}}, "strides": {"list": {"i": ["1", "1", "1", "1"]}}}}, {"name": "StatefulPartitionedCall/model/activation_3/PartitionedCall/PartitionedCall/Gelu/mul", "op": "Mul", "input": ["StatefulPartitionedCall/model/activation_3/PartitionedCall/PartitionedCall/Gelu/mul/x", "StatefulPartitionedCall/model/batch_normalization_3/FusedBatchNormV3"], "attr": {"T": {"type": "DT_FLOAT"}, "_grappler_ArithmeticOptimizer_MinimizeBroadcasts": {"b": true}}}, {"name": "StatefulPartitionedCall/model/activation_3/PartitionedCall/PartitionedCall/Gelu/Pow", "op": "Pow", "input": ["StatefulPartitionedCall/model/batch_normalization_3/FusedBatchNormV3", "StatefulPartitionedCall/model/activation_3/PartitionedCall/PartitionedCall/Gelu/Pow/y"], "attr": {"T": {"type": "DT_FLOAT"}}}, {"name": "StatefulPartitionedCall/model/activation_3/PartitionedCall/PartitionedCall/Gelu/mul_1", "op": "Mul", "input": ["StatefulPartitionedCall/model/activation_3/PartitionedCall/PartitionedCall/Gelu/Cast/x", "StatefulPartitionedCall/model/activation_3/PartitionedCall/PartitionedCall/Gelu/Pow"], "attr": {"T": {"type": "DT_FLOAT"}}}, {"name": "StatefulPartitionedCall/model/activation_3/PartitionedCall/PartitionedCall/Gelu/add", "op": "AddV2", "input": ["StatefulPartitionedCall/model/batch_normalization_3/FusedBatchNormV3", "StatefulPartitionedCall/model/activation_3/PartitionedCall/PartitionedCall/Gelu/mul_1"], "attr": {"T": {"type": "DT_FLOAT"}}}, {"name": "StatefulPartitionedCall/model/activation_3/PartitionedCall/PartitionedCall/Gelu/mul_2", "op": "Mul", "input": ["StatefulPartitionedCall/model/activation_3/PartitionedCall/PartitionedCall/Gelu/mul_2/x", "StatefulPartitionedCall/model/activation_3/PartitionedCall/PartitionedCall/Gelu/add"], "attr": {"T": {"type": "DT_FLOAT"}}}, {"name": "StatefulPartitionedCall/model/activation_3/PartitionedCall/PartitionedCall/Gelu/Tanh", "op": "Tanh", "input": ["StatefulPartitionedCall/model/activation_3/PartitionedCall/PartitionedCall/Gelu/mul_2"], "attr": {"T": {"type": "DT_FLOAT"}}}, {"name": "StatefulPartitionedCall/model/activation_3/PartitionedCall/PartitionedCall/Gelu/add_1", "op": "AddV2", "input": ["StatefulPartitionedCall/model/activation_3/PartitionedCall/PartitionedCall/Gelu/add_1/x", "StatefulPartitionedCall/model/activation_3/PartitionedCall/PartitionedCall/Gelu/Tanh"], "attr": {"T": {"type": "DT_FLOAT"}}}, {"name": "StatefulPartitionedCall/model/activation_3/PartitionedCall/PartitionedCall/Gelu/mul_3", "op": "Mul", "input": ["StatefulPartitionedCall/model/activation_3/PartitionedCall/PartitionedCall/Gelu/mul", "StatefulPartitionedCall/model/activation_3/PartitionedCall/PartitionedCall/Gelu/add_1"], "attr": {"_grappler_ArithmeticOptimizer_MinimizeBroadcasts": {"b": true}, "T": {"type": "DT_FLOAT"}}}, {"name": "StatefulPartitionedCall/model/batch_normalization_4/FusedBatchNormV3", "op": "_FusedConv2D", "input": ["StatefulPartitionedCall/model/activation_3/PartitionedCall/PartitionedCall/Gelu/mul_3", "StatefulPartitionedCall/model/conv2d_4/Conv2D_weights", "StatefulPartitionedCall/model/conv2d_4/Conv2D_bn_offset"], "device": "/device:CPU:0", "attr": {"strides": {"list": {"i": ["1", "1", "1", "1"]}}, "padding": {"s": "U0FNRQ=="}, "dilations": {"list": {"i": ["1", "1", "1", "1"]}}, "fused_ops": {"list": {"s": ["Qmlhc0FkZA=="]}}, "num_args": {"i": "1"}, "use_cudnn_on_gpu": {"b": true}, "epsilon": {"f": 0.0}, "data_format": {"s": "TkhXQw=="}, "explicit_paddings": {"list": {}}, "T": {"type": "DT_FLOAT"}}}, {"name": "StatefulPartitionedCall/model/add_1/add", "op": "AddV2", "input": ["StatefulPartitionedCall/model/activation_2/PartitionedCall/PartitionedCall/Gelu/mul_3", "StatefulPartitionedCall/model/batch_normalization_4/FusedBatchNormV3"], "attr": {"T": {"type": "DT_FLOAT"}}}, {"name": "StatefulPartitionedCall/model/activation_4/PartitionedCall/PartitionedCall/Gelu/mul", "op": "Mul", "input": ["StatefulPartitionedCall/model/activation_4/PartitionedCall/PartitionedCall/Gelu/mul/x", "StatefulPartitionedCall/model/add_1/add"], "attr": {"T": {"type": "DT_FLOAT"}, "_grappler_ArithmeticOptimizer_MinimizeBroadcasts": {"b": true}}}, {"name": "StatefulPartitionedCall/model/activation_4/PartitionedCall/PartitionedCall/Gelu/Pow", "op": "Pow", "input": ["StatefulPartitionedCall/model/add_1/add", "StatefulPartitionedCall/model/activation_4/PartitionedCall/PartitionedCall/Gelu/Pow/y"], "attr": {"T": {"type": "DT_FLOAT"}}}, {"name": "StatefulPartitionedCall/model/activation_4/PartitionedCall/PartitionedCall/Gelu/mul_1", "op": "Mul", "input": ["StatefulPartitionedCall/model/activation_4/PartitionedCall/PartitionedCall/Gelu/Cast/x", "StatefulPartitionedCall/model/activation_4/PartitionedCall/PartitionedCall/Gelu/Pow"], "attr": {"T": {"type": "DT_FLOAT"}}}, {"name": "StatefulPartitionedCall/model/activation_4/PartitionedCall/PartitionedCall/Gelu/add", "op": "AddV2", "input": ["StatefulPartitionedCall/model/add_1/add", "StatefulPartitionedCall/model/activation_4/PartitionedCall/PartitionedCall/Gelu/mul_1"], "attr": {"T": {"type": "DT_FLOAT"}}}, {"name": "StatefulPartitionedCall/model/activation_4/PartitionedCall/PartitionedCall/Gelu/mul_2", "op": "Mul", "input": ["StatefulPartitionedCall/model/activation_4/PartitionedCall/PartitionedCall/Gelu/mul_2/x", "StatefulPartitionedCall/model/activation_4/PartitionedCall/PartitionedCall/Gelu/add"], "attr": {"T": {"type": "DT_FLOAT"}}}, {"name": "StatefulPartitionedCall/model/activation_4/PartitionedCall/PartitionedCall/Gelu/Tanh", "op": "Tanh", "input": ["StatefulPartitionedCall/model/activation_4/PartitionedCall/PartitionedCall/Gelu/mul_2"], "attr": {"T": {"type": "DT_FLOAT"}}}, {"name": "StatefulPartitionedCall/model/activation_4/PartitionedCall/PartitionedCall/Gelu/add_1", "op": "AddV2", "input": ["StatefulPartitionedCall/model/activation_4/PartitionedCall/PartitionedCall/Gelu/add_1/x", "StatefulPartitionedCall/model/activation_4/PartitionedCall/PartitionedCall/Gelu/Tanh"], "attr": {"T": {"type": "DT_FLOAT"}}}, {"name": "StatefulPartitionedCall/model/activation_4/PartitionedCall/PartitionedCall/Gelu/mul_3", "op": "Mul", "input": ["StatefulPartitionedCall/model/activation_4/PartitionedCall/PartitionedCall/Gelu/mul", "StatefulPartitionedCall/model/activation_4/PartitionedCall/PartitionedCall/Gelu/add_1"], "attr": {"_grappler_ArithmeticOptimizer_MinimizeBroadcasts": {"b": true}, "T": {"type": "DT_FLOAT"}}}, {"name": "StatefulPartitionedCall/model/batch_normalization_5/FusedBatchNormV3", "op": "_FusedConv2D", "input": ["StatefulPartitionedCall/model/activation_4/PartitionedCall/PartitionedCall/Gelu/mul_3", "StatefulPartitionedCall/model/conv2d_5/Conv2D_weights", "StatefulPartitionedCall/model/conv2d_5/Conv2D_bn_offset"], "device": "/device:CPU:0", "attr": {"T": {"type": "DT_FLOAT"}, "epsilon": {"f": 0.0}, "data_format": {"s": "TkhXQw=="}, "padding": {"s": "U0FNRQ=="}, "num_args": {"i": "1"}, "use_cudnn_on_gpu": {"b": true}, "explicit_paddings": {"list": {}}, "fused_ops": {"list": {"s": ["Qmlhc0FkZA=="]}}, "dilations": {"list": {"i": ["1", "1", "1", "1"]}}, "strides": {"list": {"i": ["1", "1", "1", "1"]}}}}, {"name": "StatefulPartitionedCall/model/activation_5/PartitionedCall/PartitionedCall/Gelu/mul", "op": "Mul", "input": ["StatefulPartitionedCall/model/activation_5/PartitionedCall/PartitionedCall/Gelu/mul/x", "StatefulPartitionedCall/model/batch_normalization_5/FusedBatchNormV3"], "attr": {"_grappler_ArithmeticOptimizer_MinimizeBroadcasts": {"b": true}, "T": {"type": "DT_FLOAT"}}}, {"name": "StatefulPartitionedCall/model/activation_5/PartitionedCall/PartitionedCall/Gelu/Pow", "op": "Pow", "input": ["StatefulPartitionedCall/model/batch_normalization_5/FusedBatchNormV3", "StatefulPartitionedCall/model/activation_5/PartitionedCall/PartitionedCall/Gelu/Pow/y"], "attr": {"T": {"type": "DT_FLOAT"}}}, {"name": "StatefulPartitionedCall/model/activation_5/PartitionedCall/PartitionedCall/Gelu/mul_1", "op": "Mul", "input": ["StatefulPartitionedCall/model/activation_5/PartitionedCall/PartitionedCall/Gelu/Cast/x", "StatefulPartitionedCall/model/activation_5/PartitionedCall/PartitionedCall/Gelu/Pow"], "attr": {"T": {"type": "DT_FLOAT"}}}, {"name": "StatefulPartitionedCall/model/activation_5/PartitionedCall/PartitionedCall/Gelu/add", "op": "AddV2", "input": ["StatefulPartitionedCall/model/batch_normalization_5/FusedBatchNormV3", "StatefulPartitionedCall/model/activation_5/PartitionedCall/PartitionedCall/Gelu/mul_1"], "attr": {"T": {"type": "DT_FLOAT"}}}, {"name": "StatefulPartitionedCall/model/activation_5/PartitionedCall/PartitionedCall/Gelu/mul_2", "op": "Mul", "input": ["StatefulPartitionedCall/model/activation_5/PartitionedCall/PartitionedCall/Gelu/mul_2/x", "StatefulPartitionedCall/model/activation_5/PartitionedCall/PartitionedCall/Gelu/add"], "attr": {"T": {"type": "DT_FLOAT"}}}, {"name": "StatefulPartitionedCall/model/activation_5/PartitionedCall/PartitionedCall/Gelu/Tanh", "op": "Tanh", "input": ["StatefulPartitionedCall/model/activation_5/PartitionedCall/PartitionedCall/Gelu/mul_2"], "attr": {"T": {"type": "DT_FLOAT"}}}, {"name": "StatefulPartitionedCall/model/activation_5/PartitionedCall/PartitionedCall/Gelu/add_1", "op": "AddV2", "input": ["StatefulPartitionedCall/model/activation_5/PartitionedCall/PartitionedCall/Gelu/add_1/x", "StatefulPartitionedCall/model/activation_5/PartitionedCall/PartitionedCall/Gelu/Tanh"], "attr": {"T": {"type": "DT_FLOAT"}}}, {"name": "StatefulPartitionedCall/model/activation_5/PartitionedCall/PartitionedCall/Gelu/mul_3", "op": "Mul", "input": ["StatefulPartitionedCall/model/activation_5/PartitionedCall/PartitionedCall/Gelu/mul", "StatefulPartitionedCall/model/activation_5/PartitionedCall/PartitionedCall/Gelu/add_1"], "attr": {"_grappler_ArithmeticOptimizer_MinimizeBroadcasts": {"b": true}, "T": {"type": "DT_FLOAT"}}}, {"name": "StatefulPartitionedCall/model/batch_normalization_6/FusedBatchNormV3", "op": "_FusedConv2D", "input": ["StatefulPartitionedCall/model/activation_5/PartitionedCall/PartitionedCall/Gelu/mul_3", "StatefulPartitionedCall/model/conv2d_6/Conv2D_weights", "StatefulPartitionedCall/model/conv2d_6/Conv2D_bn_offset"], "device": "/device:CPU:0", "attr": {"fused_ops": {"list": {"s": ["Qmlhc0FkZA=="]}}, "T": {"type": "DT_FLOAT"}, "data_format": {"s": "TkhXQw=="}, "num_args": {"i": "1"}, "epsilon": {"f": 0.0}, "padding": {"s": "U0FNRQ=="}, "use_cudnn_on_gpu": {"b": true}, "strides": {"list": {"i": ["1", "1", "1", "1"]}}, "dilations": {"list": {"i": ["1", "1", "1", "1"]}}, "explicit_paddings": {"list": {}}}}, {"name": "StatefulPartitionedCall/model/add_2/add", "op": "AddV2", "input": ["StatefulPartitionedCall/model/activation_4/PartitionedCall/PartitionedCall/Gelu/mul_3", "StatefulPartitionedCall/model/batch_normalization_6/FusedBatchNormV3"], "attr": {"T": {"type": "DT_FLOAT"}}}, {"name": "StatefulPartitionedCall/model/activation_6/PartitionedCall/PartitionedCall/Gelu/mul", "op": "Mul", "input": ["StatefulPartitionedCall/model/activation_6/PartitionedCall/PartitionedCall/Gelu/mul/x", "StatefulPartitionedCall/model/add_2/add"], "attr": {"T": {"type": "DT_FLOAT"}, "_grappler_ArithmeticOptimizer_MinimizeBroadcasts": {"b": true}}}, {"name": "StatefulPartitionedCall/model/activation_6/PartitionedCall/PartitionedCall/Gelu/Pow", "op": "Pow", "input": ["StatefulPartitionedCall/model/add_2/add", "StatefulPartitionedCall/model/activation_6/PartitionedCall/PartitionedCall/Gelu/Pow/y"], "attr": {"T": {"type": "DT_FLOAT"}}}, {"name": "StatefulPartitionedCall/model/activation_6/PartitionedCall/PartitionedCall/Gelu/mul_1", "op": "Mul", "input": ["StatefulPartitionedCall/model/activation_6/PartitionedCall/PartitionedCall/Gelu/Cast/x", "StatefulPartitionedCall/model/activation_6/PartitionedCall/PartitionedCall/Gelu/Pow"], "attr": {"T": {"type": "DT_FLOAT"}}}, {"name": "StatefulPartitionedCall/model/activation_6/PartitionedCall/PartitionedCall/Gelu/add", "op": "AddV2", "input": ["StatefulPartitionedCall/model/add_2/add", "StatefulPartitionedCall/model/activation_6/PartitionedCall/PartitionedCall/Gelu/mul_1"], "attr": {"T": {"type": "DT_FLOAT"}}}, {"name": "StatefulPartitionedCall/model/activation_6/PartitionedCall/PartitionedCall/Gelu/mul_2", "op": "Mul", "input": ["StatefulPartitionedCall/model/activation_6/PartitionedCall/PartitionedCall/Gelu/mul_2/x", "StatefulPartitionedCall/model/activation_6/PartitionedCall/PartitionedCall/Gelu/add"], "attr": {"T": {"type": "DT_FLOAT"}}}, {"name": "StatefulPartitionedCall/model/activation_6/PartitionedCall/PartitionedCall/Gelu/Tanh", "op": "Tanh", "input": ["StatefulPartitionedCall/model/activation_6/PartitionedCall/PartitionedCall/Gelu/mul_2"], "attr": {"T": {"type": "DT_FLOAT"}}}, {"name": "StatefulPartitionedCall/model/activation_6/PartitionedCall/PartitionedCall/Gelu/add_1", "op": "AddV2", "input": ["StatefulPartitionedCall/model/activation_6/PartitionedCall/PartitionedCall/Gelu/add_1/x", "StatefulPartitionedCall/model/activation_6/PartitionedCall/PartitionedCall/Gelu/Tanh"], "attr": {"T": {"type": "DT_FLOAT"}}}, {"name": "StatefulPartitionedCall/model/activation_6/PartitionedCall/PartitionedCall/Gelu/mul_3", "op": "Mul", "input": ["StatefulPartitionedCall/model/activation_6/PartitionedCall/PartitionedCall/Gelu/mul", "StatefulPartitionedCall/model/activation_6/PartitionedCall/PartitionedCall/Gelu/add_1"], "attr": {"_grappler_ArithmeticOptimizer_MinimizeBroadcasts": {"b": true}, "T": {"type": "DT_FLOAT"}}}, {"name": "StatefulPartitionedCall/model/batch_normalization_7/FusedBatchNormV3", "op": "_FusedConv2D", "input": ["StatefulPartitionedCall/model/activation_6/PartitionedCall/PartitionedCall/Gelu/mul_3", "StatefulPartitionedCall/model/conv2d_7/Conv2D_weights", "StatefulPartitionedCall/model/conv2d_7/Conv2D_bn_offset"], "device": "/device:CPU:0", "attr": {"fused_ops": {"list": {"s": ["Qmlhc0FkZA=="]}}, "T": {"type": "DT_FLOAT"}, "data_format": {"s": "TkhXQw=="}, "num_args": {"i": "1"}, "epsilon": {"f": 0.0}, "padding": {"s": "U0FNRQ=="}, "use_cudnn_on_gpu": {"b": true}, "strides": {"list": {"i": ["1", "1", "1", "1"]}}, "dilations": {"list": {"i": ["1", "1", "1", "1"]}}, "explicit_paddings": {"list": {}}}}, {"name": "StatefulPartitionedCall/model/activation_7/PartitionedCall/PartitionedCall/Gelu/mul", "op": "Mul", "input": ["StatefulPartitionedCall/model/activation_7/PartitionedCall/PartitionedCall/Gelu/mul/x", "StatefulPartitionedCall/model/batch_normalization_7/FusedBatchNormV3"], "attr": {"_grappler_ArithmeticOptimizer_MinimizeBroadcasts": {"b": true}, "T": {"type": "DT_FLOAT"}}}, {"name": "StatefulPartitionedCall/model/activation_7/PartitionedCall/PartitionedCall/Gelu/Pow", "op": "Pow", "input": ["StatefulPartitionedCall/model/batch_normalization_7/FusedBatchNormV3", "StatefulPartitionedCall/model/activation_7/PartitionedCall/PartitionedCall/Gelu/Pow/y"], "attr": {"T": {"type": "DT_FLOAT"}}}, {"name": "StatefulPartitionedCall/model/activation_7/PartitionedCall/PartitionedCall/Gelu/mul_1", "op": "Mul", "input": ["StatefulPartitionedCall/model/activation_7/PartitionedCall/PartitionedCall/Gelu/Cast/x", "StatefulPartitionedCall/model/activation_7/PartitionedCall/PartitionedCall/Gelu/Pow"], "attr": {"T": {"type": "DT_FLOAT"}}}, {"name": "StatefulPartitionedCall/model/activation_7/PartitionedCall/PartitionedCall/Gelu/add", "op": "AddV2", "input": ["StatefulPartitionedCall/model/batch_normalization_7/FusedBatchNormV3", "StatefulPartitionedCall/model/activation_7/PartitionedCall/PartitionedCall/Gelu/mul_1"], "attr": {"T": {"type": "DT_FLOAT"}}}, {"name": "StatefulPartitionedCall/model/activation_7/PartitionedCall/PartitionedCall/Gelu/mul_2", "op": "Mul", "input": ["StatefulPartitionedCall/model/activation_7/PartitionedCall/PartitionedCall/Gelu/mul_2/x", "StatefulPartitionedCall/model/activation_7/PartitionedCall/PartitionedCall/Gelu/add"], "attr": {"T": {"type": "DT_FLOAT"}}}, {"name": "StatefulPartitionedCall/model/activation_7/PartitionedCall/PartitionedCall/Gelu/Tanh", "op": "Tanh", "input": ["StatefulPartitionedCall/model/activation_7/PartitionedCall/PartitionedCall/Gelu/mul_2"], "attr": {"T": {"type": "DT_FLOAT"}}}, {"name": "StatefulPartitionedCall/model/activation_7/PartitionedCall/PartitionedCall/Gelu/add_1", "op": "AddV2", "input": ["StatefulPartitionedCall/model/activation_7/PartitionedCall/PartitionedCall/Gelu/add_1/x", "StatefulPartitionedCall/model/activation_7/PartitionedCall/PartitionedCall/Gelu/Tanh"], "attr": {"T": {"type": "DT_FLOAT"}}}, {"name": "StatefulPartitionedCall/model/activation_7/PartitionedCall/PartitionedCall/Gelu/mul_3", "op": "Mul", "input": ["StatefulPartitionedCall/model/activation_7/PartitionedCall/PartitionedCall/Gelu/mul", "StatefulPartitionedCall/model/activation_7/PartitionedCall/PartitionedCall/Gelu/add_1"], "attr": {"_grappler_ArithmeticOptimizer_MinimizeBroadcasts": {"b": true}, "T": {"type": "DT_FLOAT"}}}, {"name": "StatefulPartitionedCall/model/batch_normalization_8/FusedBatchNormV3", "op": "_FusedConv2D", "input": ["StatefulPartitionedCall/model/activation_7/PartitionedCall/PartitionedCall/Gelu/mul_3", "StatefulPartitionedCall/model/conv2d_8/Conv2D_weights", "StatefulPartitionedCall/model/conv2d_8/Conv2D_bn_offset"], "device": "/device:CPU:0", "attr": {"data_format": {"s": "TkhXQw=="}, "num_args": {"i": "1"}, "use_cudnn_on_gpu": {"b": true}, "epsilon": {"f": 0.0}, "strides": {"list": {"i": ["1", "1", "1", "1"]}}, "dilations": {"list": {"i": ["1", "1", "1", "1"]}}, "explicit_paddings": {"list": {}}, "fused_ops": {"list": {"s": ["Qmlhc0FkZA=="]}}, "T": {"type": "DT_FLOAT"}, "padding": {"s": "U0FNRQ=="}}}, {"name": "StatefulPartitionedCall/model/add_3/add", "op": "AddV2", "input": ["StatefulPartitionedCall/model/activation_6/PartitionedCall/PartitionedCall/Gelu/mul_3", "StatefulPartitionedCall/model/batch_normalization_8/FusedBatchNormV3"], "attr": {"T": {"type": "DT_FLOAT"}}}, {"name": "StatefulPartitionedCall/model/activation_8/PartitionedCall/PartitionedCall/Gelu/mul", "op": "Mul", "input": ["StatefulPartitionedCall/model/activation_8/PartitionedCall/PartitionedCall/Gelu/mul/x", "StatefulPartitionedCall/model/add_3/add"], "attr": {"_grappler_ArithmeticOptimizer_MinimizeBroadcasts": {"b": true}, "T": {"type": "DT_FLOAT"}}}, {"name": "StatefulPartitionedCall/model/activation_8/PartitionedCall/PartitionedCall/Gelu/Pow", "op": "Pow", "input": ["StatefulPartitionedCall/model/add_3/add", "StatefulPartitionedCall/model/activation_8/PartitionedCall/PartitionedCall/Gelu/Pow/y"], "attr": {"T": {"type": "DT_FLOAT"}}}, {"name": "StatefulPartitionedCall/model/activation_8/PartitionedCall/PartitionedCall/Gelu/mul_1", "op": "Mul", "input": ["StatefulPartitionedCall/model/activation_8/PartitionedCall/PartitionedCall/Gelu/Cast/x", "StatefulPartitionedCall/model/activation_8/PartitionedCall/PartitionedCall/Gelu/Pow"], "attr": {"T": {"type": "DT_FLOAT"}}}, {"name": "StatefulPartitionedCall/model/activation_8/PartitionedCall/PartitionedCall/Gelu/add", "op": "AddV2", "input": ["StatefulPartitionedCall/model/add_3/add", "StatefulPartitionedCall/model/activation_8/PartitionedCall/PartitionedCall/Gelu/mul_1"], "attr": {"T": {"type": "DT_FLOAT"}}}, {"name": "StatefulPartitionedCall/model/activation_8/PartitionedCall/PartitionedCall/Gelu/mul_2", "op": "Mul", "input": ["StatefulPartitionedCall/model/activation_8/PartitionedCall/PartitionedCall/Gelu/mul_2/x", "StatefulPartitionedCall/model/activation_8/PartitionedCall/PartitionedCall/Gelu/add"], "attr": {"T": {"type": "DT_FLOAT"}}}, {"name": "StatefulPartitionedCall/model/activation_8/PartitionedCall/PartitionedCall/Gelu/Tanh", "op": "Tanh", "input": ["StatefulPartitionedCall/model/activation_8/PartitionedCall/PartitionedCall/Gelu/mul_2"], "attr": {"T": {"type": "DT_FLOAT"}}}, {"name": "StatefulPartitionedCall/model/activation_8/PartitionedCall/PartitionedCall/Gelu/add_1", "op": "AddV2", "input": ["StatefulPartitionedCall/model/activation_8/PartitionedCall/PartitionedCall/Gelu/add_1/x", "StatefulPartitionedCall/model/activation_8/PartitionedCall/PartitionedCall/Gelu/Tanh"], "attr": {"T": {"type": "DT_FLOAT"}}}, {"name": "StatefulPartitionedCall/model/activation_8/PartitionedCall/PartitionedCall/Gelu/mul_3", "op": "Mul", "input": ["StatefulPartitionedCall/model/activation_8/PartitionedCall/PartitionedCall/Gelu/mul", "StatefulPartitionedCall/model/activation_8/PartitionedCall/PartitionedCall/Gelu/add_1"], "attr": {"_grappler_ArithmeticOptimizer_MinimizeBroadcasts": {"b": true}, "T": {"type": "DT_FLOAT"}}}, {"name": "StatefulPartitionedCall/model/batch_normalization_9/FusedBatchNormV3", "op": "_FusedConv2D", "input": ["StatefulPartitionedCall/model/activation_8/PartitionedCall/PartitionedCall/Gelu/mul_3", "StatefulPartitionedCall/model/conv2d_9/Conv2D_weights", "StatefulPartitionedCall/model/conv2d_9/Conv2D_bn_offset"], "device": "/device:CPU:0", "attr": {"padding": {"s": "U0FNRQ=="}, "num_args": {"i": "1"}, "use_cudnn_on_gpu": {"b": true}, "epsilon": {"f": 0.0}, "strides": {"list": {"i": ["1", "1", "1", "1"]}}, "dilations": {"list": {"i": ["1", "1", "1", "1"]}}, "explicit_paddings": {"list": {}}, "fused_ops": {"list": {"s": ["Qmlhc0FkZA=="]}}, "T": {"type": "DT_FLOAT"}, "data_format": {"s": "TkhXQw=="}}}, {"name": "StatefulPartitionedCall/model/activation_9/PartitionedCall/PartitionedCall/Gelu/mul", "op": "Mul", "input": ["StatefulPartitionedCall/model/activation_9/PartitionedCall/PartitionedCall/Gelu/mul/x", "StatefulPartitionedCall/model/batch_normalization_9/FusedBatchNormV3"], "attr": {"T": {"type": "DT_FLOAT"}, "_grappler_ArithmeticOptimizer_MinimizeBroadcasts": {"b": true}}}, {"name": "StatefulPartitionedCall/model/activation_9/PartitionedCall/PartitionedCall/Gelu/Pow", "op": "Pow", "input": ["StatefulPartitionedCall/model/batch_normalization_9/FusedBatchNormV3", "StatefulPartitionedCall/model/activation_9/PartitionedCall/PartitionedCall/Gelu/Pow/y"], "attr": {"T": {"type": "DT_FLOAT"}}}, {"name": "StatefulPartitionedCall/model/activation_9/PartitionedCall/PartitionedCall/Gelu/mul_1", "op": "Mul", "input": ["StatefulPartitionedCall/model/activation_9/PartitionedCall/PartitionedCall/Gelu/Cast/x", "StatefulPartitionedCall/model/activation_9/PartitionedCall/PartitionedCall/Gelu/Pow"], "attr": {"T": {"type": "DT_FLOAT"}}}, {"name": "StatefulPartitionedCall/model/activation_9/PartitionedCall/PartitionedCall/Gelu/add", "op": "AddV2", "input": ["StatefulPartitionedCall/model/batch_normalization_9/FusedBatchNormV3", "StatefulPartitionedCall/model/activation_9/PartitionedCall/PartitionedCall/Gelu/mul_1"], "attr": {"T": {"type": "DT_FLOAT"}}}, {"name": "StatefulPartitionedCall/model/activation_9/PartitionedCall/PartitionedCall/Gelu/mul_2", "op": "Mul", "input": ["StatefulPartitionedCall/model/activation_9/PartitionedCall/PartitionedCall/Gelu/mul_2/x", "StatefulPartitionedCall/model/activation_9/PartitionedCall/PartitionedCall/Gelu/add"], "attr": {"T": {"type": "DT_FLOAT"}}}, {"name": "StatefulPartitionedCall/model/activation_9/PartitionedCall/PartitionedCall/Gelu/Tanh", "op": "Tanh", "input": ["StatefulPartitionedCall/model/activation_9/PartitionedCall/PartitionedCall/Gelu/mul_2"], "attr": {"T": {"type": "DT_FLOAT"}}}, {"name": "StatefulPartitionedCall/model/activation_9/PartitionedCall/PartitionedCall/Gelu/add_1", "op": "AddV2", "input": ["StatefulPartitionedCall/model/activation_9/PartitionedCall/PartitionedCall/Gelu/add_1/x", "StatefulPartitionedCall/model/activation_9/PartitionedCall/PartitionedCall/Gelu/Tanh"], "attr": {"T": {"type": "DT_FLOAT"}}}, {"name": "StatefulPartitionedCall/model/activation_9/PartitionedCall/PartitionedCall/Gelu/mul_3", "op": "Mul", "input": ["StatefulPartitionedCall/model/activation_9/PartitionedCall/PartitionedCall/Gelu/mul", "StatefulPartitionedCall/model/activation_9/PartitionedCall/PartitionedCall/Gelu/add_1"], "attr": {"T": {"type": "DT_FLOAT"}, "_grappler_ArithmeticOptimizer_MinimizeBroadcasts": {"b": true}}}, {"name": "StatefulPartitionedCall/model/batch_normalization_10/FusedBatchNormV3", "op": "_FusedConv2D", "input": ["StatefulPartitionedCall/model/activation_9/PartitionedCall/PartitionedCall/Gelu/mul_3", "StatefulPartitionedCall/model/conv2d_10/Conv2D_weights", "StatefulPartitionedCall/model/conv2d_10/Conv2D_bn_offset"], "device": "/device:CPU:0", "attr": {"padding": {"s": "U0FNRQ=="}, "num_args": {"i": "1"}, "use_cudnn_on_gpu": {"b": true}, "epsilon": {"f": 0.0}, "strides": {"list": {"i": ["1", "1", "1", "1"]}}, "dilations": {"list": {"i": ["1", "1", "1", "1"]}}, "explicit_paddings": {"list": {}}, "fused_ops": {"list": {"s": ["Qmlhc0FkZA=="]}}, "T": {"type": "DT_FLOAT"}, "data_format": {"s": "TkhXQw=="}}}, {"name": "StatefulPartitionedCall/model/add_4/add", "op": "AddV2", "input": ["StatefulPartitionedCall/model/activation_8/PartitionedCall/PartitionedCall/Gelu/mul_3", "StatefulPartitionedCall/model/batch_normalization_10/FusedBatchNormV3"], "attr": {"T": {"type": "DT_FLOAT"}}}, {"name": "StatefulPartitionedCall/model/activation_10/PartitionedCall/PartitionedCall/Gelu/mul", "op": "Mul", "input": ["StatefulPartitionedCall/model/activation_10/PartitionedCall/PartitionedCall/Gelu/mul/x", "StatefulPartitionedCall/model/add_4/add"], "attr": {"_grappler_ArithmeticOptimizer_MinimizeBroadcasts": {"b": true}, "T": {"type": "DT_FLOAT"}}}, {"name": "StatefulPartitionedCall/model/activation_10/PartitionedCall/PartitionedCall/Gelu/Pow", "op": "Pow", "input": ["StatefulPartitionedCall/model/add_4/add", "StatefulPartitionedCall/model/activation_10/PartitionedCall/PartitionedCall/Gelu/Pow/y"], "attr": {"T": {"type": "DT_FLOAT"}}}, {"name": "StatefulPartitionedCall/model/activation_10/PartitionedCall/PartitionedCall/Gelu/mul_1", "op": "Mul", "input": ["StatefulPartitionedCall/model/activation_10/PartitionedCall/PartitionedCall/Gelu/Cast/x", "StatefulPartitionedCall/model/activation_10/PartitionedCall/PartitionedCall/Gelu/Pow"], "attr": {"T": {"type": "DT_FLOAT"}}}, {"name": "StatefulPartitionedCall/model/activation_10/PartitionedCall/PartitionedCall/Gelu/add", "op": "AddV2", "input": ["StatefulPartitionedCall/model/add_4/add", "StatefulPartitionedCall/model/activation_10/PartitionedCall/PartitionedCall/Gelu/mul_1"], "attr": {"T": {"type": "DT_FLOAT"}}}, {"name": "StatefulPartitionedCall/model/activation_10/PartitionedCall/PartitionedCall/Gelu/mul_2", "op": "Mul", "input": ["StatefulPartitionedCall/model/activation_10/PartitionedCall/PartitionedCall/Gelu/mul_2/x", "StatefulPartitionedCall/model/activation_10/PartitionedCall/PartitionedCall/Gelu/add"], "attr": {"T": {"type": "DT_FLOAT"}}}, {"name": "StatefulPartitionedCall/model/activation_10/PartitionedCall/PartitionedCall/Gelu/Tanh", "op": "Tanh", "input": ["StatefulPartitionedCall/model/activation_10/PartitionedCall/PartitionedCall/Gelu/mul_2"], "attr": {"T": {"type": "DT_FLOAT"}}}, {"name": "StatefulPartitionedCall/model/activation_10/PartitionedCall/PartitionedCall/Gelu/add_1", "op": "AddV2", "input": ["StatefulPartitionedCall/model/activation_10/PartitionedCall/PartitionedCall/Gelu/add_1/x", "StatefulPartitionedCall/model/activation_10/PartitionedCall/PartitionedCall/Gelu/Tanh"], "attr": {"T": {"type": "DT_FLOAT"}}}, {"name": "StatefulPartitionedCall/model/activation_10/PartitionedCall/PartitionedCall/Gelu/mul_3", "op": "Mul", "input": ["StatefulPartitionedCall/model/activation_10/PartitionedCall/PartitionedCall/Gelu/mul", "StatefulPartitionedCall/model/activation_10/PartitionedCall/PartitionedCall/Gelu/add_1"], "attr": {"_grappler_ArithmeticOptimizer_MinimizeBroadcasts": {"b": true}, "T": {"type": "DT_FLOAT"}}}, {"name": "StatefulPartitionedCall/model/batch_normalization_11/FusedBatchNormV3", "op": "_FusedConv2D", "input": ["StatefulPartitionedCall/model/activation_10/PartitionedCall/PartitionedCall/Gelu/mul_3", "StatefulPartitionedCall/model/conv2d_11/Conv2D_weights", "StatefulPartitionedCall/model/conv2d_11/Conv2D_bn_offset"], "device": "/device:CPU:0", "attr": {"use_cudnn_on_gpu": {"b": true}, "epsilon": {"f": 0.0}, "data_format": {"s": "TkhXQw=="}, "explicit_paddings": {"list": {}}, "padding": {"s": "U0FNRQ=="}, "strides": {"list": {"i": ["1", "1", "1", "1"]}}, "fused_ops": {"list": {"s": ["Qmlhc0FkZA=="]}}, "dilations": {"list": {"i": ["1", "1", "1", "1"]}}, "T": {"type": "DT_FLOAT"}, "num_args": {"i": "1"}}}, {"name": "StatefulPartitionedCall/model/activation_11/PartitionedCall/PartitionedCall/Gelu/mul", "op": "Mul", "input": ["StatefulPartitionedCall/model/activation_11/PartitionedCall/PartitionedCall/Gelu/mul/x", "StatefulPartitionedCall/model/batch_normalization_11/FusedBatchNormV3"], "attr": {"_grappler_ArithmeticOptimizer_MinimizeBroadcasts": {"b": true}, "T": {"type": "DT_FLOAT"}}}, {"name": "StatefulPartitionedCall/model/activation_11/PartitionedCall/PartitionedCall/Gelu/Pow", "op": "Pow", "input": ["StatefulPartitionedCall/model/batch_normalization_11/FusedBatchNormV3", "StatefulPartitionedCall/model/activation_11/PartitionedCall/PartitionedCall/Gelu/Pow/y"], "attr": {"T": {"type": "DT_FLOAT"}}}, {"name": "StatefulPartitionedCall/model/activation_11/PartitionedCall/PartitionedCall/Gelu/mul_1", "op": "Mul", "input": ["StatefulPartitionedCall/model/activation_11/PartitionedCall/PartitionedCall/Gelu/Cast/x", "StatefulPartitionedCall/model/activation_11/PartitionedCall/PartitionedCall/Gelu/Pow"], "attr": {"T": {"type": "DT_FLOAT"}}}, {"name": "StatefulPartitionedCall/model/activation_11/PartitionedCall/PartitionedCall/Gelu/add", "op": "AddV2", "input": ["StatefulPartitionedCall/model/batch_normalization_11/FusedBatchNormV3", "StatefulPartitionedCall/model/activation_11/PartitionedCall/PartitionedCall/Gelu/mul_1"], "attr": {"T": {"type": "DT_FLOAT"}}}, {"name": "StatefulPartitionedCall/model/activation_11/PartitionedCall/PartitionedCall/Gelu/mul_2", "op": "Mul", "input": ["StatefulPartitionedCall/model/activation_11/PartitionedCall/PartitionedCall/Gelu/mul_2/x", "StatefulPartitionedCall/model/activation_11/PartitionedCall/PartitionedCall/Gelu/add"], "attr": {"T": {"type": "DT_FLOAT"}}}, {"name": "StatefulPartitionedCall/model/activation_11/PartitionedCall/PartitionedCall/Gelu/Tanh", "op": "Tanh", "input": ["StatefulPartitionedCall/model/activation_11/PartitionedCall/PartitionedCall/Gelu/mul_2"], "attr": {"T": {"type": "DT_FLOAT"}}}, {"name": "StatefulPartitionedCall/model/activation_11/PartitionedCall/PartitionedCall/Gelu/add_1", "op": "AddV2", "input": ["StatefulPartitionedCall/model/activation_11/PartitionedCall/PartitionedCall/Gelu/add_1/x", "StatefulPartitionedCall/model/activation_11/PartitionedCall/PartitionedCall/Gelu/Tanh"], "attr": {"T": {"type": "DT_FLOAT"}}}, {"name": "StatefulPartitionedCall/model/activation_11/PartitionedCall/PartitionedCall/Gelu/mul_3", "op": "Mul", "input": ["StatefulPartitionedCall/model/activation_11/PartitionedCall/PartitionedCall/Gelu/mul", "StatefulPartitionedCall/model/activation_11/PartitionedCall/PartitionedCall/Gelu/add_1"], "attr": {"T": {"type": "DT_FLOAT"}, "_grappler_ArithmeticOptimizer_MinimizeBroadcasts": {"b": true}}}, {"name": "StatefulPartitionedCall/model/batch_normalization_12/FusedBatchNormV3", "op": "_FusedConv2D", "input": ["StatefulPartitionedCall/model/activation_11/PartitionedCall/PartitionedCall/Gelu/mul_3", "StatefulPartitionedCall/model/conv2d_12/Conv2D_weights", "StatefulPartitionedCall/model/conv2d_12/Conv2D_bn_offset"], "device": "/device:CPU:0", "attr": {"padding": {"s": "U0FNRQ=="}, "num_args": {"i": "1"}, "use_cudnn_on_gpu": {"b": true}, "epsilon": {"f": 0.0}, "strides": {"list": {"i": ["1", "1", "1", "1"]}}, "dilations": {"list": {"i": ["1", "1", "1", "1"]}}, "explicit_paddings": {"list": {}}, "fused_ops": {"list": {"s": ["Qmlhc0FkZA=="]}}, "T": {"type": "DT_FLOAT"}, "data_format": {"s": "TkhXQw=="}}}, {"name": "StatefulPartitionedCall/model/add_5/add", "op": "AddV2", "input": ["StatefulPartitionedCall/model/activation_10/PartitionedCall/PartitionedCall/Gelu/mul_3", "StatefulPartitionedCall/model/batch_normalization_12/FusedBatchNormV3"], "attr": {"T": {"type": "DT_FLOAT"}}}, {"name": "StatefulPartitionedCall/model/activation_12/PartitionedCall/PartitionedCall/Gelu/mul", "op": "Mul", "input": ["StatefulPartitionedCall/model/activation_12/PartitionedCall/PartitionedCall/Gelu/mul/x", "StatefulPartitionedCall/model/add_5/add"], "attr": {"T": {"type": "DT_FLOAT"}, "_grappler_ArithmeticOptimizer_MinimizeBroadcasts": {"b": true}}}, {"name": "StatefulPartitionedCall/model/activation_12/PartitionedCall/PartitionedCall/Gelu/Pow", "op": "Pow", "input": ["StatefulPartitionedCall/model/add_5/add", "StatefulPartitionedCall/model/activation_12/PartitionedCall/PartitionedCall/Gelu/Pow/y"], "attr": {"T": {"type": "DT_FLOAT"}}}, {"name": "StatefulPartitionedCall/model/activation_12/PartitionedCall/PartitionedCall/Gelu/mul_1", "op": "Mul", "input": ["StatefulPartitionedCall/model/activation_12/PartitionedCall/PartitionedCall/Gelu/Cast/x", "StatefulPartitionedCall/model/activation_12/PartitionedCall/PartitionedCall/Gelu/Pow"], "attr": {"T": {"type": "DT_FLOAT"}}}, {"name": "StatefulPartitionedCall/model/activation_12/PartitionedCall/PartitionedCall/Gelu/add", "op": "AddV2", "input": ["StatefulPartitionedCall/model/add_5/add", "StatefulPartitionedCall/model/activation_12/PartitionedCall/PartitionedCall/Gelu/mul_1"], "attr": {"T": {"type": "DT_FLOAT"}}}, {"name": "StatefulPartitionedCall/model/activation_12/PartitionedCall/PartitionedCall/Gelu/mul_2", "op": "Mul", "input": ["StatefulPartitionedCall/model/activation_12/PartitionedCall/PartitionedCall/Gelu/mul_2/x", "StatefulPartitionedCall/model/activation_12/PartitionedCall/PartitionedCall/Gelu/add"], "attr": {"T": {"type": "DT_FLOAT"}}}, {"name": "StatefulPartitionedCall/model/activation_12/PartitionedCall/PartitionedCall/Gelu/Tanh", "op": "Tanh", "input": ["StatefulPartitionedCall/model/activation_12/PartitionedCall/PartitionedCall/Gelu/mul_2"], "attr": {"T": {"type": "DT_FLOAT"}}}, {"name": "StatefulPartitionedCall/model/activation_12/PartitionedCall/PartitionedCall/Gelu/add_1", "op": "AddV2", "input": ["StatefulPartitionedCall/model/activation_12/PartitionedCall/PartitionedCall/Gelu/add_1/x", "StatefulPartitionedCall/model/activation_12/PartitionedCall/PartitionedCall/Gelu/Tanh"], "attr": {"T": {"type": "DT_FLOAT"}}}, {"name": "StatefulPartitionedCall/model/activation_12/PartitionedCall/PartitionedCall/Gelu/mul_3", "op": "Mul", "input": ["StatefulPartitionedCall/model/activation_12/PartitionedCall/PartitionedCall/Gelu/mul", "StatefulPartitionedCall/model/activation_12/PartitionedCall/PartitionedCall/Gelu/add_1"], "attr": {"_grappler_ArithmeticOptimizer_MinimizeBroadcasts": {"b": true}, "T": {"type": "DT_FLOAT"}}}, {"name": "StatefulPartitionedCall/model/batch_normalization_13/FusedBatchNormV3", "op": "_FusedConv2D", "input": ["StatefulPartitionedCall/model/activation_12/PartitionedCall/PartitionedCall/Gelu/mul_3", "StatefulPartitionedCall/model/conv2d_13/Conv2D_weights", "StatefulPartitionedCall/model/conv2d_13/Conv2D_bn_offset"], "device": "/device:CPU:0", "attr": {"T": {"type": "DT_FLOAT"}, "dilations": {"list": {"i": ["1", "1", "1", "1"]}}, "fused_ops": {"list": {"s": ["Qmlhc0FkZA=="]}}, "padding": {"s": "U0FNRQ=="}, "num_args": {"i": "1"}, "use_cudnn_on_gpu": {"b": true}, "data_format": {"s": "TkhXQw=="}, "strides": {"list": {"i": ["1", "1", "1", "1"]}}, "explicit_paddings": {"list": {}}, "epsilon": {"f": 0.0}}}, {"name": "StatefulPartitionedCall/model/activation_13/PartitionedCall/PartitionedCall/Gelu/mul", "op": "Mul", "input": ["StatefulPartitionedCall/model/activation_13/PartitionedCall/PartitionedCall/Gelu/mul/x", "StatefulPartitionedCall/model/batch_normalization_13/FusedBatchNormV3"], "attr": {"T": {"type": "DT_FLOAT"}, "_grappler_ArithmeticOptimizer_MinimizeBroadcasts": {"b": true}}}, {"name": "StatefulPartitionedCall/model/activation_13/PartitionedCall/PartitionedCall/Gelu/Pow", "op": "Pow", "input": ["StatefulPartitionedCall/model/batch_normalization_13/FusedBatchNormV3", "StatefulPartitionedCall/model/activation_13/PartitionedCall/PartitionedCall/Gelu/Pow/y"], "attr": {"T": {"type": "DT_FLOAT"}}}, {"name": "StatefulPartitionedCall/model/activation_13/PartitionedCall/PartitionedCall/Gelu/mul_1", "op": "Mul", "input": ["StatefulPartitionedCall/model/activation_13/PartitionedCall/PartitionedCall/Gelu/Cast/x", "StatefulPartitionedCall/model/activation_13/PartitionedCall/PartitionedCall/Gelu/Pow"], "attr": {"T": {"type": "DT_FLOAT"}}}, {"name": "StatefulPartitionedCall/model/activation_13/PartitionedCall/PartitionedCall/Gelu/add", "op": "AddV2", "input": ["StatefulPartitionedCall/model/batch_normalization_13/FusedBatchNormV3", "StatefulPartitionedCall/model/activation_13/PartitionedCall/PartitionedCall/Gelu/mul_1"], "attr": {"T": {"type": "DT_FLOAT"}}}, {"name": "StatefulPartitionedCall/model/activation_13/PartitionedCall/PartitionedCall/Gelu/mul_2", "op": "Mul", "input": ["StatefulPartitionedCall/model/activation_13/PartitionedCall/PartitionedCall/Gelu/mul_2/x", "StatefulPartitionedCall/model/activation_13/PartitionedCall/PartitionedCall/Gelu/add"], "attr": {"T": {"type": "DT_FLOAT"}}}, {"name": "StatefulPartitionedCall/model/activation_13/PartitionedCall/PartitionedCall/Gelu/Tanh", "op": "Tanh", "input": ["StatefulPartitionedCall/model/activation_13/PartitionedCall/PartitionedCall/Gelu/mul_2"], "attr": {"T": {"type": "DT_FLOAT"}}}, {"name": "StatefulPartitionedCall/model/activation_13/PartitionedCall/PartitionedCall/Gelu/add_1", "op": "AddV2", "input": ["StatefulPartitionedCall/model/activation_13/PartitionedCall/PartitionedCall/Gelu/add_1/x", "StatefulPartitionedCall/model/activation_13/PartitionedCall/PartitionedCall/Gelu/Tanh"], "attr": {"T": {"type": "DT_FLOAT"}}}, {"name": "StatefulPartitionedCall/model/activation_13/PartitionedCall/PartitionedCall/Gelu/mul_3", "op": "Mul", "input": ["StatefulPartitionedCall/model/activation_13/PartitionedCall/PartitionedCall/Gelu/mul", "StatefulPartitionedCall/model/activation_13/PartitionedCall/PartitionedCall/Gelu/add_1"], "attr": {"T": {"type": "DT_FLOAT"}, "_grappler_ArithmeticOptimizer_MinimizeBroadcasts": {"b": true}}}, {"name": "StatefulPartitionedCall/model/batch_normalization_14/FusedBatchNormV3", "op": "_FusedConv2D", "input": ["StatefulPartitionedCall/model/activation_13/PartitionedCall/PartitionedCall/Gelu/mul_3", "StatefulPartitionedCall/model/conv2d_14/Conv2D_weights", "StatefulPartitionedCall/model/conv2d_14/Conv2D_bn_offset"], "device": "/device:CPU:0", "attr": {"use_cudnn_on_gpu": {"b": true}, "strides": {"list": {"i": ["1", "1", "1", "1"]}}, "epsilon": {"f": 0.0}, "padding": {"s": "U0FNRQ=="}, "explicit_paddings": {"list": {}}, "dilations": {"list": {"i": ["1", "1", "1", "1"]}}, "T": {"type": "DT_FLOAT"}, "fused_ops": {"list": {"s": ["Qmlhc0FkZA=="]}}, "num_args": {"i": "1"}, "data_format": {"s": "TkhXQw=="}}}, {"name": "StatefulPartitionedCall/model/add_6/add", "op": "AddV2", "input": ["StatefulPartitionedCall/model/activation_12/PartitionedCall/PartitionedCall/Gelu/mul_3", "StatefulPartitionedCall/model/batch_normalization_14/FusedBatchNormV3"], "attr": {"T": {"type": "DT_FLOAT"}}}, {"name": "StatefulPartitionedCall/model/activation_14/PartitionedCall/PartitionedCall/Gelu/mul", "op": "Mul", "input": ["StatefulPartitionedCall/model/activation_14/PartitionedCall/PartitionedCall/Gelu/mul/x", "StatefulPartitionedCall/model/add_6/add"], "attr": {"T": {"type": "DT_FLOAT"}, "_grappler_ArithmeticOptimizer_MinimizeBroadcasts": {"b": true}}}, {"name": "StatefulPartitionedCall/model/activation_14/PartitionedCall/PartitionedCall/Gelu/Pow", "op": "Pow", "input": ["StatefulPartitionedCall/model/add_6/add", "StatefulPartitionedCall/model/activation_14/PartitionedCall/PartitionedCall/Gelu/Pow/y"], "attr": {"T": {"type": "DT_FLOAT"}}}, {"name": "StatefulPartitionedCall/model/activation_14/PartitionedCall/PartitionedCall/Gelu/mul_1", "op": "Mul", "input": ["StatefulPartitionedCall/model/activation_14/PartitionedCall/PartitionedCall/Gelu/Cast/x", "StatefulPartitionedCall/model/activation_14/PartitionedCall/PartitionedCall/Gelu/Pow"], "attr": {"T": {"type": "DT_FLOAT"}}}, {"name": "StatefulPartitionedCall/model/activation_14/PartitionedCall/PartitionedCall/Gelu/add", "op": "AddV2", "input": ["StatefulPartitionedCall/model/add_6/add", "StatefulPartitionedCall/model/activation_14/PartitionedCall/PartitionedCall/Gelu/mul_1"], "attr": {"T": {"type": "DT_FLOAT"}}}, {"name": "StatefulPartitionedCall/model/activation_14/PartitionedCall/PartitionedCall/Gelu/mul_2", "op": "Mul", "input": ["StatefulPartitionedCall/model/activation_14/PartitionedCall/PartitionedCall/Gelu/mul_2/x", "StatefulPartitionedCall/model/activation_14/PartitionedCall/PartitionedCall/Gelu/add"], "attr": {"T": {"type": "DT_FLOAT"}}}, {"name": "StatefulPartitionedCall/model/activation_14/PartitionedCall/PartitionedCall/Gelu/Tanh", "op": "Tanh", "input": ["StatefulPartitionedCall/model/activation_14/PartitionedCall/PartitionedCall/Gelu/mul_2"], "attr": {"T": {"type": "DT_FLOAT"}}}, {"name": "StatefulPartitionedCall/model/activation_14/PartitionedCall/PartitionedCall/Gelu/add_1", "op": "AddV2", "input": ["StatefulPartitionedCall/model/activation_14/PartitionedCall/PartitionedCall/Gelu/add_1/x", "StatefulPartitionedCall/model/activation_14/PartitionedCall/PartitionedCall/Gelu/Tanh"], "attr": {"T": {"type": "DT_FLOAT"}}}, {"name": "StatefulPartitionedCall/model/activation_14/PartitionedCall/PartitionedCall/Gelu/mul_3", "op": "Mul", "input": ["StatefulPartitionedCall/model/activation_14/PartitionedCall/PartitionedCall/Gelu/mul", "StatefulPartitionedCall/model/activation_14/PartitionedCall/PartitionedCall/Gelu/add_1"], "attr": {"T": {"type": "DT_FLOAT"}, "_grappler_ArithmeticOptimizer_MinimizeBroadcasts": {"b": true}}}, {"name": "StatefulPartitionedCall/model/batch_normalization_16/FusedBatchNormV3", "op": "_FusedConv2D", "input": ["StatefulPartitionedCall/model/activation_14/PartitionedCall/PartitionedCall/Gelu/mul_3", "StatefulPartitionedCall/model/conv2d_16/Conv2D_weights", "StatefulPartitionedCall/model/conv2d_16/Conv2D_bn_offset"], "device": "/device:CPU:0", "attr": {"T": {"type": "DT_FLOAT"}, "fused_ops": {"list": {"s": ["Qmlhc0FkZA=="]}}, "num_args": {"i": "1"}, "use_cudnn_on_gpu": {"b": true}, "data_format": {"s": "TkhXQw=="}, "strides": {"list": {"i": ["1", "1", "1", "1"]}}, "padding": {"s": "U0FNRQ=="}, "explicit_paddings": {"list": {}}, "epsilon": {"f": 0.0}, "dilations": {"list": {"i": ["1", "1", "1", "1"]}}}}, {"name": "StatefulPartitionedCall/model/batch_normalization_15/FusedBatchNormV3", "op": "_FusedConv2D", "input": ["StatefulPartitionedCall/model/activation_14/PartitionedCall/PartitionedCall/Gelu/mul_3", "StatefulPartitionedCall/model/conv2d_15/Conv2D_weights", "StatefulPartitionedCall/model/conv2d_15/Conv2D_bn_offset"], "device": "/device:CPU:0", "attr": {"T": {"type": "DT_FLOAT"}, "dilations": {"list": {"i": ["1", "1", "1", "1"]}}, "fused_ops": {"list": {"s": ["Qmlhc0FkZA=="]}}, "padding": {"s": "U0FNRQ=="}, "num_args": {"i": "1"}, "use_cudnn_on_gpu": {"b": true}, "data_format": {"s": "TkhXQw=="}, "strides": {"list": {"i": ["1", "1", "1", "1"]}}, "explicit_paddings": {"list": {}}, "epsilon": {"f": 0.0}}}, {"name": "StatefulPartitionedCall/model/activation_17/PartitionedCall/PartitionedCall/Gelu/mul", "op": "Mul", "input": ["StatefulPartitionedCall/model/activation_17/PartitionedCall/PartitionedCall/Gelu/mul/x", "StatefulPartitionedCall/model/batch_normalization_16/FusedBatchNormV3"], "attr": {"T": {"type": "DT_FLOAT"}, "_grappler_ArithmeticOptimizer_MinimizeBroadcasts": {"b": true}}}, {"name": "StatefulPartitionedCall/model/activation_17/PartitionedCall/PartitionedCall/Gelu/Pow", "op": "Pow", "input": ["StatefulPartitionedCall/model/batch_normalization_16/FusedBatchNormV3", "StatefulPartitionedCall/model/activation_17/PartitionedCall/PartitionedCall/Gelu/Pow/y"], "attr": {"T": {"type": "DT_FLOAT"}}}, {"name": "StatefulPartitionedCall/model/activation_15/PartitionedCall/PartitionedCall/Gelu/mul", "op": "Mul", "input": ["StatefulPartitionedCall/model/activation_15/PartitionedCall/PartitionedCall/Gelu/mul/x", "StatefulPartitionedCall/model/batch_normalization_15/FusedBatchNormV3"], "attr": {"T": {"type": "DT_FLOAT"}, "_grappler_ArithmeticOptimizer_MinimizeBroadcasts": {"b": true}}}, {"name": "StatefulPartitionedCall/model/activation_15/PartitionedCall/PartitionedCall/Gelu/Pow", "op": "Pow", "input": ["StatefulPartitionedCall/model/batch_normalization_15/FusedBatchNormV3", "StatefulPartitionedCall/model/activation_15/PartitionedCall/PartitionedCall/Gelu/Pow/y"], "attr": {"T": {"type": "DT_FLOAT"}}}, {"name": "StatefulPartitionedCall/model/activation_17/PartitionedCall/PartitionedCall/Gelu/mul_1", "op": "Mul", "input": ["StatefulPartitionedCall/model/activation_17/PartitionedCall/PartitionedCall/Gelu/Cast/x", "StatefulPartitionedCall/model/activation_17/PartitionedCall/PartitionedCall/Gelu/Pow"], "attr": {"T": {"type": "DT_FLOAT"}}}, {"name": "StatefulPartitionedCall/model/activation_15/PartitionedCall/PartitionedCall/Gelu/mul_1", "op": "Mul", "input": ["StatefulPartitionedCall/model/activation_15/PartitionedCall/PartitionedCall/Gelu/Cast/x", "StatefulPartitionedCall/model/activation_15/PartitionedCall/PartitionedCall/Gelu/Pow"], "attr": {"T": {"type": "DT_FLOAT"}}}, {"name": "StatefulPartitionedCall/model/activation_17/PartitionedCall/PartitionedCall/Gelu/add", "op": "AddV2", "input": ["StatefulPartitionedCall/model/batch_normalization_16/FusedBatchNormV3", "StatefulPartitionedCall/model/activation_17/PartitionedCall/PartitionedCall/Gelu/mul_1"], "attr": {"T": {"type": "DT_FLOAT"}}}, {"name": "StatefulPartitionedCall/model/activation_15/PartitionedCall/PartitionedCall/Gelu/add", "op": "AddV2", "input": ["StatefulPartitionedCall/model/batch_normalization_15/FusedBatchNormV3", "StatefulPartitionedCall/model/activation_15/PartitionedCall/PartitionedCall/Gelu/mul_1"], "attr": {"T": {"type": "DT_FLOAT"}}}, {"name": "StatefulPartitionedCall/model/activation_17/PartitionedCall/PartitionedCall/Gelu/mul_2", "op": "Mul", "input": ["StatefulPartitionedCall/model/activation_17/PartitionedCall/PartitionedCall/Gelu/mul_2/x", "StatefulPartitionedCall/model/activation_17/PartitionedCall/PartitionedCall/Gelu/add"], "attr": {"T": {"type": "DT_FLOAT"}}}, {"name": "StatefulPartitionedCall/model/activation_15/PartitionedCall/PartitionedCall/Gelu/mul_2", "op": "Mul", "input": ["StatefulPartitionedCall/model/activation_15/PartitionedCall/PartitionedCall/Gelu/mul_2/x", "StatefulPartitionedCall/model/activation_15/PartitionedCall/PartitionedCall/Gelu/add"], "attr": {"T": {"type": "DT_FLOAT"}}}, {"name": "StatefulPartitionedCall/model/activation_17/PartitionedCall/PartitionedCall/Gelu/Tanh", "op": "Tanh", "input": ["StatefulPartitionedCall/model/activation_17/PartitionedCall/PartitionedCall/Gelu/mul_2"], "attr": {"T": {"type": "DT_FLOAT"}}}, {"name": "StatefulPartitionedCall/model/activation_15/PartitionedCall/PartitionedCall/Gelu/Tanh", "op": "Tanh", "input": ["StatefulPartitionedCall/model/activation_15/PartitionedCall/PartitionedCall/Gelu/mul_2"], "attr": {"T": {"type": "DT_FLOAT"}}}, {"name": "StatefulPartitionedCall/model/activation_17/PartitionedCall/PartitionedCall/Gelu/add_1", "op": "AddV2", "input": ["StatefulPartitionedCall/model/activation_17/PartitionedCall/PartitionedCall/Gelu/add_1/x", "StatefulPartitionedCall/model/activation_17/PartitionedCall/PartitionedCall/Gelu/Tanh"], "attr": {"T": {"type": "DT_FLOAT"}}}, {"name": "StatefulPartitionedCall/model/activation_15/PartitionedCall/PartitionedCall/Gelu/add_1", "op": "AddV2", "input": ["StatefulPartitionedCall/model/activation_15/PartitionedCall/PartitionedCall/Gelu/add_1/x", "StatefulPartitionedCall/model/activation_15/PartitionedCall/PartitionedCall/Gelu/Tanh"], "attr": {"T": {"type": "DT_FLOAT"}}}, {"name": "StatefulPartitionedCall/model/activation_17/PartitionedCall/PartitionedCall/Gelu/mul_3", "op": "Mul", "input": ["StatefulPartitionedCall/model/activation_17/PartitionedCall/PartitionedCall/Gelu/mul", "StatefulPartitionedCall/model/activation_17/PartitionedCall/PartitionedCall/Gelu/add_1"], "attr": {"T": {"type": "DT_FLOAT"}, "_grappler_ArithmeticOptimizer_MinimizeBroadcasts": {"b": true}}}, {"name": "StatefulPartitionedCall/model/activation_15/PartitionedCall/PartitionedCall/Gelu/mul_3", "op": "Mul", "input": ["StatefulPartitionedCall/model/activation_15/PartitionedCall/PartitionedCall/Gelu/mul", "StatefulPartitionedCall/model/activation_15/PartitionedCall/PartitionedCall/Gelu/add_1"], "attr": {"T": {"type": "DT_FLOAT"}, "_grappler_ArithmeticOptimizer_MinimizeBroadcasts": {"b": true}}}, {"name": "StatefulPartitionedCall/model/policy_head/FusedBatchNormV3", "op": "_FusedConv2D", "input": ["StatefulPartitionedCall/model/activation_17/PartitionedCall/PartitionedCall/Gelu/mul_3", "StatefulPartitionedCall/model/conv2d_17/Conv2D_weights", "StatefulPartitionedCall/model/conv2d_17/Conv2D_bn_offset"], "device": "/device:CPU:0", "attr": {"data_format": {"s": "TkhXQw=="}, "num_args": {"i": "1"}, "use_cudnn_on_gpu": {"b": true}, "epsilon": {"f": 0.0}, "strides": {"list": {"i": ["1", "1", "1", "1"]}}, "dilations": {"list": {"i": ["1", "1", "1", "1"]}}, "explicit_paddings": {"list": {}}, "fused_ops": {"list": {"s": ["Qmlhc0FkZA=="]}}, "T": {"type": "DT_FLOAT"}, "padding": {"s": "U0FNRQ=="}}}, {"name": "StatefulPartitionedCall/model/flatten/Reshape", "op": "Reshape", "input": ["StatefulPartitionedCall/model/activation_15/PartitionedCall/PartitionedCall/Gelu/mul_3", "StatefulPartitionedCall/model/flatten/Const"], "attr": {"Tshape": {"type": "DT_INT32"}, "T": {"type": "DT_FLOAT"}}}, {"name": "Identity", "op": "Identity", "input": ["StatefulPartitionedCall/model/policy_head/FusedBatchNormV3"], "attr": {"T": {"type": "DT_FLOAT"}}}, {"name": "StatefulPartitionedCall/model/dense/MatMul", "op": "MatMul", "input": ["StatefulPartitionedCall/model/flatten/Reshape", "StatefulPartitionedCall/model/dense/MatMul/ReadVariableOp"], "device": "/device:CPU:0", "attr": {"T": {"type": "DT_FLOAT"}, "transpose_b": {"b": false}, "transpose_a": {"b": false}}}, {"name": "StatefulPartitionedCall/model/activation_16/PartitionedCall/PartitionedCall/Gelu/mul", "op": "Mul", "input": ["StatefulPartitionedCall/model/activation_16/PartitionedCall/PartitionedCall/Gelu/mul/x", "StatefulPartitionedCall/model/dense/MatMul"], "attr": {"T": {"type": "DT_FLOAT"}, "_grappler_ArithmeticOptimizer_MinimizeBroadcasts": {"b": true}}}, {"name": "StatefulPartitionedCall/model/activation_16/PartitionedCall/PartitionedCall/Gelu/Pow", "op": "Pow", "input": ["StatefulPartitionedCall/model/dense/MatMul", "StatefulPartitionedCall/model/activation_16/PartitionedCall/PartitionedCall/Gelu/Pow/y"], "attr": {"T": {"type": "DT_FLOAT"}}}, {"name": "StatefulPartitionedCall/model/activation_16/PartitionedCall/PartitionedCall/Gelu/mul_1", "op": "Mul", "input": ["StatefulPartitionedCall/model/activation_16/PartitionedCall/PartitionedCall/Gelu/Cast/x", "StatefulPartitionedCall/model/activation_16/PartitionedCall/PartitionedCall/Gelu/Pow"], "attr": {"T": {"type": "DT_FLOAT"}}}, {"name": "StatefulPartitionedCall/model/activation_16/PartitionedCall/PartitionedCall/Gelu/add", "op": "AddV2", "input": ["StatefulPartitionedCall/model/dense/MatMul", "StatefulPartitionedCall/model/activation_16/PartitionedCall/PartitionedCall/Gelu/mul_1"], "attr": {"T": {"type": "DT_FLOAT"}}}, {"name": "StatefulPartitionedCall/model/activation_16/PartitionedCall/PartitionedCall/Gelu/mul_2", "op": "Mul", "input": ["StatefulPartitionedCall/model/activation_16/PartitionedCall/PartitionedCall/Gelu/mul_2/x", "StatefulPartitionedCall/model/activation_16/PartitionedCall/PartitionedCall/Gelu/add"], "attr": {"T": {"type": "DT_FLOAT"}}}, {"name": "StatefulPartitionedCall/model/activation_16/PartitionedCall/PartitionedCall/Gelu/Tanh", "op": "Tanh", "input": ["StatefulPartitionedCall/model/activation_16/PartitionedCall/PartitionedCall/Gelu/mul_2"], "attr": {"T": {"type": "DT_FLOAT"}}}, {"name": "StatefulPartitionedCall/model/activation_16/PartitionedCall/PartitionedCall/Gelu/add_1", "op": "AddV2", "input": ["StatefulPartitionedCall/model/activation_16/PartitionedCall/PartitionedCall/Gelu/add_1/x", "StatefulPartitionedCall/model/activation_16/PartitionedCall/PartitionedCall/Gelu/Tanh"], "attr": {"T": {"type": "DT_FLOAT"}}}, {"name": "StatefulPartitionedCall/model/activation_16/PartitionedCall/PartitionedCall/Gelu/mul_3", "op": "Mul", "input": ["StatefulPartitionedCall/model/activation_16/PartitionedCall/PartitionedCall/Gelu/mul", "StatefulPartitionedCall/model/activation_16/PartitionedCall/PartitionedCall/Gelu/add_1"], "attr": {"T": {"type": "DT_FLOAT"}, "_grappler_ArithmeticOptimizer_MinimizeBroadcasts": {"b": true}}}, {"name": "StatefulPartitionedCall/model/value_head/MatMul", "op": "MatMul", "input": ["StatefulPartitionedCall/model/activation_16/PartitionedCall/PartitionedCall/Gelu/mul_3", "StatefulPartitionedCall/model/value_head/MatMul/ReadVariableOp"], "device": "/device:CPU:0", "attr": {"transpose_a": {"b": false}, "T": {"type": "DT_FLOAT"}, "transpose_b": {"b": false}}}, {"name": "StatefulPartitionedCall/model/value_head/Tanh", "op": "Tanh", "input": ["StatefulPartitionedCall/model/value_head/MatMul"], "attr": {"T": {"type": "DT_FLOAT"}}}, {"name": "Identity_1", "op": "Identity", "input": ["StatefulPartitionedCall/model/value_head/Tanh"], "attr": {"T": {"type": "DT_FLOAT"}}}], "library": {}, "versions": {"producer": 808}}, "weightsManifest": [{"paths": ["group1-shard1of1.bin"], "weights": [{"name": "StatefulPartitionedCall/model/activation_17/PartitionedCall/PartitionedCall/Gelu/mul/x", "shape": [], "dtype": "float32"}, {"name": "StatefulPartitionedCall/model/activation_17/PartitionedCall/PartitionedCall/Gelu/add_1/x", "shape": [], "dtype": "float32"}, {"name": "StatefulPartitionedCall/model/activation_17/PartitionedCall/PartitionedCall/Gelu/mul_2/x", "shape": [], "dtype": "float32"}, {"name": "StatefulPartitionedCall/model/activation_17/PartitionedCall/PartitionedCall/Gelu/Cast/x", "shape": [], "dtype": "float32"}, {"name": "StatefulPartitionedCall/model/activation_17/PartitionedCall/PartitionedCall/Gelu/Pow/y", "shape": [], "dtype": "float32"}, {"name": "StatefulPartitionedCall/model/activation_16/PartitionedCall/PartitionedCall/Gelu/mul/x", "shape": [], "dtype": "float32"}, {"name": "StatefulPartitionedCall/model/activation_16/PartitionedCall/PartitionedCall/Gelu/add_1/x", "shape": [], "dtype": "float32"}, {"name": "StatefulPartitionedCall/model/activation_16/PartitionedCall/PartitionedCall/Gelu/mul_2/x", "shape": [], "dtype": "float32"}, {"name": "StatefulPartitionedCall/model/activation_16/PartitionedCall/PartitionedCall/Gelu/Cast/x", "shape": [], "dtype": "float32"}, {"name": "StatefulPartitionedCall/model/activation_15/PartitionedCall/PartitionedCall/Gelu/mul/x", "shape": [], "dtype": "float32"}, {"name": "StatefulPartitionedCall/model/activation_15/PartitionedCall/PartitionedCall/Gelu/add_1/x", "shape": [], "dtype": "float32"}, {"name": "StatefulPartitionedCall/model/activation_15/PartitionedCall/PartitionedCall/Gelu/mul_2/x", "shape": [], "dtype": "float32"}, {"name": "StatefulPartitionedCall/model/activation_15/PartitionedCall/PartitionedCall/Gelu/Cast/x", "shape": [], "dtype": "float32"}, {"name": "StatefulPartitionedCall/model/activation_14/PartitionedCall/PartitionedCall/Gelu/mul/x", "shape": [], "dtype": "float32"}, {"name": "StatefulPartitionedCall/model/activation_14/PartitionedCall/PartitionedCall/Gelu/add_1/x", "shape": [], "dtype": "float32"}, {"name": "StatefulPartitionedCall/model/activation_14/PartitionedCall/PartitionedCall/Gelu/mul_2/x", "shape": [], "dtype": "float32"}, {"name": "StatefulPartitionedCall/model/activation_14/PartitionedCall/PartitionedCall/Gelu/Cast/x", "shape": [], "dtype": "float32"}, {"name": "StatefulPartitionedCall/model/activation_13/PartitionedCall/PartitionedCall/Gelu/mul/x", "shape": [], "dtype": "float32"}, {"name": "StatefulPartitionedCall/model/activation_13/PartitionedCall/PartitionedCall/Gelu/add_1/x", "shape": [], "dtype": "float32"}, {"name": "StatefulPartitionedCall/model/activation_13/PartitionedCall/PartitionedCall/Gelu/mul_2/x", "shape": [], "dtype": "float32"}, {"name": "StatefulPartitionedCall/model/activation_13/PartitionedCall/PartitionedCall/Gelu/Cast/x", "shape": [], "dtype": "float32"}, {"name": "StatefulPartitionedCall/model/activation_12/PartitionedCall/PartitionedCall/Gelu/mul/x", "shape": [], "dtype": "float32"}, {"name": "StatefulPartitionedCall/model/activation_12/PartitionedCall/PartitionedCall/Gelu/add_1/x", "shape": [], "dtype": "float32"}, {"name": "StatefulPartitionedCall/model/activation_12/PartitionedCall/PartitionedCall/Gelu/mul_2/x", "shape": [], "dtype": "float32"}, {"name": "StatefulPartitionedCall/model/activation_12/PartitionedCall/PartitionedCall/Gelu/Cast/x", "shape": [], "dtype": "float32"}, {"name": "StatefulPartitionedCall/model/activation_11/PartitionedCall/PartitionedCall/Gelu/mul/x", "shape": [], "dtype": "float32"}, {"name": "StatefulPartitionedCall/model/activation_11/PartitionedCall/PartitionedCall/Gelu/add_1/x", "shape": [], "dtype": "float32"}, {"name": "StatefulPartitionedCall/model/activation_11/PartitionedCall/PartitionedCall/Gelu/mul_2/x", "shape": [], "dtype": "float32"}, {"name": "StatefulPartitionedCall/model/activation_11/PartitionedCall/PartitionedCall/Gelu/Cast/x", "shape": [], "dtype": "float32"}, {"name": "StatefulPartitionedCall/model/activation_10/PartitionedCall/PartitionedCall/Gelu/mul/x", "shape": [], "dtype": "float32"}, {"name": "StatefulPartitionedCall/model/activation_10/PartitionedCall/PartitionedCall/Gelu/add_1/x", "shape": [], "dtype": "float32"}, {"name": "StatefulPartitionedCall/model/activation_10/PartitionedCall/PartitionedCall/Gelu/mul_2/x", "shape": [], "dtype": "float32"}, {"name": "StatefulPartitionedCall/model/activation_10/PartitionedCall/PartitionedCall/Gelu/Cast/x", "shape": [], "dtype": "float32"}, {"name": "StatefulPartitionedCall/model/activation_9/PartitionedCall/PartitionedCall/Gelu/mul/x", "shape": [], "dtype": "float32"}, {"name": "StatefulPartitionedCall/model/activation_9/PartitionedCall/PartitionedCall/Gelu/add_1/x", "shape": [], "dtype": "float32"}, {"name": "StatefulPartitionedCall/model/activation_9/PartitionedCall/PartitionedCall/Gelu/mul_2/x", "shape": [], "dtype": "float32"}, {"name": "StatefulPartitionedCall/model/activation_9/PartitionedCall/PartitionedCall/Gelu/Cast/x", "shape": [], "dtype": "float32"}, {"name": "StatefulPartitionedCall/model/activation_8/PartitionedCall/PartitionedCall/Gelu/mul/x", "shape": [], "dtype": "float32"}, {"name": "StatefulPartitionedCall/model/activation_8/PartitionedCall/PartitionedCall/Gelu/add_1/x", "shape": [], "dtype": "float32"}, {"name": "StatefulPartitionedCall/model/activation_8/PartitionedCall/PartitionedCall/Gelu/mul_2/x", "shape": [], "dtype": "float32"}, {"name": "StatefulPartitionedCall/model/activation_8/PartitionedCall/PartitionedCall/Gelu/Cast/x", "shape": [], "dtype": "float32"}, {"name": "StatefulPartitionedCall/model/activation_7/PartitionedCall/PartitionedCall/Gelu/mul/x", "shape": [], "dtype": "float32"}, {"name": "StatefulPartitionedCall/model/activation_7/PartitionedCall/PartitionedCall/Gelu/add_1/x", "shape": [], "dtype": "float32"}, {"name": "StatefulPartitionedCall/model/activation_7/PartitionedCall/PartitionedCall/Gelu/mul_2/x", "shape": [], "dtype": "float32"}, {"name": "StatefulPartitionedCall/model/activation_7/PartitionedCall/PartitionedCall/Gelu/Cast/x", "shape": [], "dtype": "float32"}, {"name": "StatefulPartitionedCall/model/activation_6/PartitionedCall/PartitionedCall/Gelu/mul/x", "shape": [], "dtype": "float32"}, {"name": "StatefulPartitionedCall/model/activation_6/PartitionedCall/PartitionedCall/Gelu/add_1/x", "shape": [], "dtype": "float32"}, {"name": "StatefulPartitionedCall/model/activation_6/PartitionedCall/PartitionedCall/Gelu/mul_2/x", "shape": [], "dtype": "float32"}, {"name": "StatefulPartitionedCall/model/activation_6/PartitionedCall/PartitionedCall/Gelu/Cast/x", "shape": [], "dtype": "float32"}, {"name": "StatefulPartitionedCall/model/activation_5/PartitionedCall/PartitionedCall/Gelu/mul/x", "shape": [], "dtype": "float32"}, {"name": "StatefulPartitionedCall/model/activation_5/PartitionedCall/PartitionedCall/Gelu/add_1/x", "shape": [], "dtype": "float32"}, {"name": "StatefulPartitionedCall/model/activation_5/PartitionedCall/PartitionedCall/Gelu/mul_2/x", "shape": [], "dtype": "float32"}, {"name": "StatefulPartitionedCall/model/activation_5/PartitionedCall/PartitionedCall/Gelu/Cast/x", "shape": [], "dtype": "float32"}, {"name": "StatefulPartitionedCall/model/activation_4/PartitionedCall/PartitionedCall/Gelu/mul/x", "shape": [], "dtype": "float32"}, {"name": "StatefulPartitionedCall/model/activation_4/PartitionedCall/PartitionedCall/Gelu/add_1/x", "shape": [], "dtype": "float32"}, {"name": "StatefulPartitionedCall/model/activation_4/PartitionedCall/PartitionedCall/Gelu/mul_2/x", "shape": [], "dtype": "float32"}, {"name": "StatefulPartitionedCall/model/activation_4/PartitionedCall/PartitionedCall/Gelu/Cast/x", "shape": [], "dtype": "float32"}, {"name": "StatefulPartitionedCall/model/activation_3/PartitionedCall/PartitionedCall/Gelu/mul/x", "shape": [], "dtype": "float32"}, {"name": "StatefulPartitionedCall/model/activation_3/PartitionedCall/PartitionedCall/Gelu/add_1/x", "shape": [], "dtype": "float32"}, {"name": "StatefulPartitionedCall/model/activation_3/PartitionedCall/PartitionedCall/Gelu/mul_2/x", "shape": [], "dtype": "float32"}, {"name": "StatefulPartitionedCall/model/activation_3/PartitionedCall/PartitionedCall/Gelu/Cast/x", "shape": [], "dtype": "float32"}, {"name": "StatefulPartitionedCall/model/activation_2/PartitionedCall/PartitionedCall/Gelu/mul/x", "shape": [], "dtype": "float32"}, {"name": "StatefulPartitionedCall/model/activation_2/PartitionedCall/PartitionedCall/Gelu/add_1/x", "shape": [], "dtype": "float32"}, {"name": "StatefulPartitionedCall/model/activation_2/PartitionedCall/PartitionedCall/Gelu/mul_2/x", "shape": [], "dtype": "float32"}, {"name": "StatefulPartitionedCall/model/activation_2/PartitionedCall/PartitionedCall/Gelu/Cast/x", "shape": [], "dtype": "float32"}, {"name": "StatefulPartitionedCall/model/activation_1/PartitionedCall/PartitionedCall/Gelu/mul/x", "shape": [], "dtype": "float32"}, {"name": "StatefulPartitionedCall/model/activation_1/PartitionedCall/PartitionedCall/Gelu/add_1/x", "shape": [], "dtype": "float32"}, {"name": "StatefulPartitionedCall/model/activation_1/PartitionedCall/PartitionedCall/Gelu/mul_2/x", "shape": [], "dtype": "float32"}, {"name": "StatefulPartitionedCall/model/activation_1/PartitionedCall/PartitionedCall/Gelu/Cast/x", "shape": [], "dtype": "float32"}, {"name": "StatefulPartitionedCall/model/activation/PartitionedCall/PartitionedCall/Gelu/mul/x", "shape": [], "dtype": "float32"}, {"name": "StatefulPartitionedCall/model/activation/PartitionedCall/PartitionedCall/Gelu/add_1/x", "shape": [], "dtype": "float32"}, {"name": "StatefulPartitionedCall/model/activation/PartitionedCall/PartitionedCall/Gelu/mul_2/x", "shape": [], "dtype": "float32"}, {"name": "StatefulPartitionedCall/model/activation/PartitionedCall/PartitionedCall/Gelu/Cast/x", "shape": [], "dtype": "float32"}, {"name": "StatefulPartitionedCall/model/activation/PartitionedCall/PartitionedCall/Gelu/Pow/y", "shape": [], "dtype": "float32"}, {"name": "StatefulPartitionedCall/model/activation_1/PartitionedCall/PartitionedCall/Gelu/Pow/y", "shape": [], "dtype": "float32"}, {"name": "StatefulPartitionedCall/model/activation_2/PartitionedCall/PartitionedCall/Gelu/Pow/y", "shape": [], "dtype": "float32"}, {"name": "StatefulPartitionedCall/model/activation_3/PartitionedCall/PartitionedCall/Gelu/Pow/y", "shape": [], "dtype": "float32"}, {"name": "StatefulPartitionedCall/model/activation_4/PartitionedCall/PartitionedCall/Gelu/Pow/y", "shape": [], "dtype": "float32"}, {"name": "StatefulPartitionedCall/model/activation_5/PartitionedCall/PartitionedCall/Gelu/Pow/y", "shape": [], "dtype": "float32"}, {"name": "StatefulPartitionedCall/model/activation_6/PartitionedCall/PartitionedCall/Gelu/Pow/y", "shape": [], "dtype": "float32"}, {"name": "StatefulPartitionedCall/model/activation_7/PartitionedCall/PartitionedCall/Gelu/Pow/y", "shape": [], "dtype": "float32"}, {"name": "StatefulPartitionedCall/model/activation_8/PartitionedCall/PartitionedCall/Gelu/Pow/y", "shape": [], "dtype": "float32"}, {"name": "StatefulPartitionedCall/model/activation_9/PartitionedCall/PartitionedCall/Gelu/Pow/y", "shape": [], "dtype": "float32"}, {"name": "StatefulPartitionedCall/model/activation_10/PartitionedCall/PartitionedCall/Gelu/Pow/y", "shape": [], "dtype": "float32"}, {"name": "StatefulPartitionedCall/model/activation_11/PartitionedCall/PartitionedCall/Gelu/Pow/y", "shape": [], "dtype": "float32"}, {"name": "StatefulPartitionedCall/model/activation_12/PartitionedCall/PartitionedCall/Gelu/Pow/y", "shape": [], "dtype": "float32"}, {"name": "StatefulPartitionedCall/model/activation_13/PartitionedCall/PartitionedCall/Gelu/Pow/y", "shape": [], "dtype": "float32"}, {"name": "StatefulPartitionedCall/model/activation_14/PartitionedCall/PartitionedCall/Gelu/Pow/y", "shape": [], "dtype": "float32"}, {"name": "StatefulPartitionedCall/model/activation_15/PartitionedCall/PartitionedCall/Gelu/Pow/y", "shape": [], "dtype": "float32"}, {"name": "StatefulPartitionedCall/model/flatten/Const", "shape": [2], "dtype": "int32"}, {"name": "StatefulPartitionedCall/model/dense/MatMul/ReadVariableOp", "shape": [36, 128], "dtype": "float32"}, {"name": "StatefulPartitionedCall/model/activation_16/PartitionedCall/PartitionedCall/Gelu/Pow/y", "shape": [], "dtype": "float32"}, {"name": "StatefulPartitionedCall/model/value_head/MatMul/ReadVariableOp", "shape": [128, 1], "dtype": "float32"}, {"name": "StatefulPartitionedCall/model/conv2d/Conv2D_weights", "shape": [3, 3, 51, 48], "dtype": "float32"}, {"name": "StatefulPartitionedCall/model/conv2d/Conv2D_bn_offset", "shape": [48], "dtype": "float32"}, {"name": "StatefulPartitionedCall/model/conv2d_1/Conv2D_weights", "shape": [3, 3, 48, 48], "dtype": "float32"}, {"name": "StatefulPartitionedCall/model/conv2d_1/Conv2D_bn_offset", "shape": [48], "dtype": "float32"}, {"name": "StatefulPartitionedCall/model/conv2d_2/Conv2D_weights", "shape": [3, 3, 48, 48], "dtype": "float32"}, {"name": "StatefulPartitionedCall/model/conv2d_2/Conv2D_bn_offset", "shape": [48], "dtype": "float32"}, {"name": "StatefulPartitionedCall/model/conv2d_3/Conv2D_weights", "shape": [3, 3, 48, 48], "dtype": "float32"}, {"name": "StatefulPartitionedCall/model/conv2d_3/Conv2D_bn_offset", "shape": [48], "dtype": "float32"}, {"name": "StatefulPartitionedCall/model/conv2d_4/Conv2D_weights", "shape": [3, 3, 48, 48], "dtype": "float32"}, {"name": "StatefulPartitionedCall/model/conv2d_4/Conv2D_bn_offset", "shape": [48], "dtype": "float32"}, {"name": "StatefulPartitionedCall/model/conv2d_5/Conv2D_weights", "shape": [3, 3, 48, 48], "dtype": "float32"}, {"name": "StatefulPartitionedCall/model/conv2d_5/Conv2D_bn_offset", "shape": [48], "dtype": "float32"}, {"name": "StatefulPartitionedCall/model/conv2d_6/Conv2D_weights", "shape": [3, 3, 48, 48], "dtype": "float32"}, {"name": "StatefulPartitionedCall/model/conv2d_6/Conv2D_bn_offset", "shape": [48], "dtype": "float32"}, {"name": "StatefulPartitionedCall/model/conv2d_7/Conv2D_weights", "shape": [3, 3, 48, 48], "dtype": "float32"}, {"name": "StatefulPartitionedCall/model/conv2d_7/Conv2D_bn_offset", "shape": [48], "dtype": "float32"}, {"name": "StatefulPartitionedCall/model/conv2d_8/Conv2D_weights", "shape": [3, 3, 48, 48], "dtype": "float32"}, {"name": "StatefulPartitionedCall/model/conv2d_8/Conv2D_bn_offset", "shape": [48], "dtype": "float32"}, {"name": "StatefulPartitionedCall/model/conv2d_9/Conv2D_weights", "shape": [3, 3, 48, 48], "dtype": "float32"}, {"name": "StatefulPartitionedCall/model/conv2d_9/Conv2D_bn_offset", "shape": [48], "dtype": "float32"}, {"name": "StatefulPartitionedCall/model/conv2d_10/Conv2D_weights", "shape": [3, 3, 48, 48], "dtype": "float32"}, {"name": "StatefulPartitionedCall/model/conv2d_10/Conv2D_bn_offset", "shape": [48], "dtype": "float32"}, {"name": "StatefulPartitionedCall/model/conv2d_11/Conv2D_weights", "shape": [3, 3, 48, 48], "dtype": "float32"}, {"name": "StatefulPartitionedCall/model/conv2d_11/Conv2D_bn_offset", "shape": [48], "dtype": "float32"}, {"name": "StatefulPartitionedCall/model/conv2d_12/Conv2D_weights", "shape": [3, 3, 48, 48], "dtype": "float32"}, {"name": "StatefulPartitionedCall/model/conv2d_12/Conv2D_bn_offset", "shape": [48], "dtype": "float32"}, {"name": "StatefulPartitionedCall/model/conv2d_13/Conv2D_weights", "shape": [3, 3, 48, 48], "dtype": "float32"}, {"name": "StatefulPartitionedCall/model/conv2d_17/Conv2D_weights", "shape": [1, 1, 128, 54], "dtype": "float32"}, {"name": "StatefulPartitionedCall/model/conv2d_13/Conv2D_bn_offset", "shape": [48], "dtype": "float32"}, {"name": "StatefulPartitionedCall/model/conv2d_14/Conv2D_weights", "shape": [3, 3, 48, 48], "dtype": "float32"}, {"name": "StatefulPartitionedCall/model/conv2d_14/Conv2D_bn_offset", "shape": [48], "dtype": "float32"}, {"name": "StatefulPartitionedCall/model/conv2d_16/Conv2D_weights", "shape": [3, 3, 48, 128], "dtype": "float32"}, {"name": "StatefulPartitionedCall/model/conv2d_17/Conv2D_bn_offset", "shape": [54], "dtype": "float32"}, {"name": "StatefulPartitionedCall/model/conv2d_16/Conv2D_bn_offset", "shape": [128], "dtype": "float32"}, {"name": "StatefulPartitionedCall/model/conv2d_15/Conv2D_weights", "shape": [1, 1, 48, 1], "dtype": "float32"}, {"name": "StatefulPartitionedCall/model/conv2d_15/Conv2D_bn_offset", "shape": [1], "dtype": "float32"}]}]}